learch/train/trained/feedforward_3.pt (torch_old, 32513 bytes, 5 tensors)

net.0.weight f4 [64, 47]
-0.7068733 -2.1628666 -0.10346755 1.3586465 -0.030623127 1.199524 1.0445727 -0.20603918
-3.1488476 0.16094936 -0.30911967 2.4198172 2.5469146 -1.8307164 -2.8877022 0.3119036
-5.445879e-39 0.48392093 0.2449934 0.9348376 0.31953207 0.26574135 0.28153783 -3.147742e-39
0.28284475 0.19475321 0.25819024 0.21781191 0.23327775 0.22087246 0.24060488 -0.37398157
-0.26031017 0.32968384 -0.02364486 0.2466591 0.002978054 1.0844835 -5.814827e-39 0.22326697
0.52108634 -5.152773e-39 -3.737019e-39 0.097721115 -0.27686623 4.480575e-39 5.278838e-39 -0.42692843
0.08130395 0.114823274 -0.3740568 -0.4480381 -1.5656505 0.2302085 -0.4655061 0.18586609
-1.0311873 -0.024383713 -0.22161418 -0.08096879 0.0791265 0.023400685 -0.013464699 3.127778e-39
-0.037918095 0.008035634 -0.13821703 0.004212754 0.005768048 0.0018146776 1.65083e-40 0.007490451
0.041331787 0.0057550403 0.008772268 0.035400588 0.008378546 -0.010852858 -1.2138337 0.18842733
-0.011166079 0.054600384 0.036176078 -0.0743533 -0.45757198 -4.64101e-39 0.00070304185 -0.026069341
-5.557341e-39 -4.587251e-39 -0.86452067 -0.018055813 -5.342407e-39 4.420004e-39 -0.38445204 -0.6783911
0.80812186 0.16386335 1.6533211 -2.2726295 1.4348804 -0.05906383 0.65979993 -3.1476007
1.3232336 0.4313929 0.30559987 0.36519253 0.12917979 0.36738363 9.35995e-40 0.48246711
0.34223554 0.32030112 0.29695708 0.2734007 0.2631887 2.183498e-39 0.25568458 -0.4037242
0.26819873 0.32646438 -0.19972123 0.32171777 -0.013716959 2.450564 1.0271778 -0.21216796
-0.77277845 0.009553304 0.039550953 -0.77677536 1.610554e-39 0.3469083 -0.22131468 1.401657e-39
2.223304e-39 -0.78031814 1.313369 5.388396e-39 1.776055e-39 0.084703065 -0.42955497 1.381699
0.13177094 2.2824945 0.45990327 0.3259952 -0.055863462 1.0769969 1.0329362 4.411423
-1.4233594 -3.74721 3.6051898 1.3093631 0.86264944 4.670386e-39 3.6637926 0.15771313
22.6154 0.584873 0.19509599 0.57836163 2.308275e-39 0.19228102 0.14032184 0.25352758
0.1737102 -0.09510437 0.17902388 -0.051297896 -1.4110563 3.6525743 0.08336705 -0.45026657
-0.031590533 0.14827168 -7.992418 1.777832e-39 0.12478728 -0.064633645 4.808326e-39 -5.700315e-39
-0.30377296 0.523987 -4.081283e-39 5.43502e-39 0.39501178 -1.7274225 2.6724458 -0.2837844
-4.488157 0.7388903 1.4139442 0.30410516 -0.06631838 2.5920615 -2.619194 -0.9708805
-1.0302839 -0.13670042 0.27943146 -0.06419257 5.83947e-39 -0.49543214 0.0467648 -3.219902
-0.06969792 0.046757177 -0.057270806 7.79642e-40 0.0568044 0.15198539 0.04959184 0.05025725
0.14130114 0.049533837 0.01794674 -0.97048 0.48746246 0.016527109 0.4330191 0.15036212
0.07470402 -0.34059638 -4.484462e-39 0.067023404 0.2637888 -5.422041e-39 3.239567e-39 -1.5734643
0.9843702 -5.414942e-39 3.820001e-39 -0.06769614 -0.13786869 0.3597016 -0.097567976 0.3943115
-0.23979135 -0.06361746 0.23384479 0.28991342 -0.0038128046 0.13658527 0.13093679 0.0032196494
-0.070254266 -0.113288336 0.008631112 5.94439e-39 -0.025267089 0.022781774 -0.13437156 0.0049832524
00000000: a6f5 34bf 686c 0ac0 cbe6 d3bd 21e8 ad3f
00000010: 5add fabc 018a 993f 8fb4 853f effb 52be
00000020: b886 49c0 e9cf 243e ef44 9ebe 49de 1a40
00000030: a600 2340 ea54 eabf 1dd0 38c0 d4b1 9f3e
00000040: e54c 3b80 7cc4 f73e 8ddf 7a3e 8451 6f3f
00000050: b599 a33e 400f 883e ba25 903e a046 2280
00000060: 07d1 903e 636d 473e 8331 843e 160a 5f3e
00000070: 5de0 6e3e 642c 623e 2061 763e 837a bfbe
00000080: 6047 85be 52cc a83e deb2 c1bc 3494 7c3e
00000090: 752b 433b 5bd0 8a3f 5f51 3f80 19a0 643e
000000a0: ea65 053f d61b 3880 4ab1 2880 0222 c83d
000000b0: 69c1 8dbe 05ca 3000 417b 3900 5d96 dabe
000000c0: af82 a63d 7728 eb3d 5f84 bfbe 4065 e5be
000000d0: 3c67 c8bf c7bb 6b3e d156 eebe ae53 3e3e
000000e0: f2fd 83bf 5ac0 c7bc d4ee 62be f7d2 a5bd
000000f0: 130d a23d cbb2 bf3c 0a9b 5cbc f90e 2200
00000100: 0150 1bbd e4a7 033c c488 0dbe 240b 8a3b
00000110: e501 bd3b 7ada ed3a 2fcc 0100 7572 f53b
00000120: 854b 293d c794 bc3b 8fb9 0f3c 3500 113d
00000130: 2b46 093c 30d0 31bc e75e 9bbf 18f3 403e
00000140: eef1 36bc a7a4 5f3d 5e2d 143d 8b46 98bd
00000150: e046 eabe 3f89 3280 574c 383a 5f8f d5bc
00000160: 9b83 3c80 64f3 3180 3a51 5dbf c9e9 93bc
00000170: 752c 3a80 2c21 3000 e6d6 c4be 0aab 2dbf
00000180: 13e1 4e3f cbcb 273e 07a0 d33f c372 11c0
00000190: 29aa b73f eaec 71bd a6e8 283f 4a72 49c0
000001a0: b85f a93f 88df dc3e 9677 9c3e 84fa ba3e
000001b0: b547 043e b519 bc3e 2c31 0a00 ee05 f73e
000001c0: 7f39 af3e 82fe a33e c20a 983e 2dfb 8b3e
000001d0: abc0 863e b4c6 1700 17e9 823e f0b4 cebe
000001e0: 5851 893e 5726 a73e b983 4cbe 31b8 a43e
000001f0: 19bd 60bc 0ad6 1c40 907a 833f 8f42 59be
00000200: cfd4 45bf 7685 1c3c 2e00 223d c0da 46bf
00000210: 9289 1100 f79d b13e 51a0 62be 4043 0f00
00000220: ab35 1800 eec2 47bf 7a1c a83f a8ac 3a00
00000230: eb56 1300 cd78 ad3d a1ee dbbe 83db b03f
00000240: f6ee 063e 6414 1240 7178 eb3e d8e8 a63e
00000250: 16d1 64bd 09db 893f 4137 843f 612a 8d40
00000260: a430 b6bf 4ad2 6fc0 6ebb 6640 3699 a73f
00000270: 98d6 5c3f 23db 3200 947b 6a40 8d7f 213e
00000280: 57ec b441 3dba 153f 3ec7 473e 820f 143f
00000290: 8822 1900 51e5 443e 87b0 0f3e 5ece 813e
000002a0: 16e1 313e 14c6 c2bd 0952 373e be1d 52bd
000002b0: 7e9d b4bf c7c3 6940 58bc aa3d 5789 e6be
000002c0: 1365 01bd 88d4 173e e3c1 ffc0 df5b 1300
000002d0: 7990 ff3d a55e 84bd a85b 3400 2912 3e80
000002e0: 2188 9bbe 0324 063f f570 2c80 a02e 3b00
000002f0: fc3e ca3e 2e1c ddbf 5a09 2b40 304c 91be
00000300: fb9e 8fc0 ea27 3d3f 20fc b43f acb3 9b3e
00000310: eed1 87bd 56e4 2540 e0a0 27c0 a08b 78bf
00000320: 58e0 83bf 32fb 0bbe a411 8f3e 6577 83bd
00000330: 1196 3f00 48a9 fdbe 728c 3f3d e012 4ec0
00000340: c8bd 8ebd 7484 3f3d cb94 6abd 537d 0800
00000350: bbab 683d 0fa2 1b3e d020 4b3d 8cda 4d3d
00000360: 3fb1 103e fee3 4a3d 0b05 933c 6171 78bf
00000370: ae94 f93e dc63 873c aeb4 dd3e 87f8 193e
00000380: 6cfe 983d a662 aebe dbd4 3080 9143 893d
00000390: 530f 873e 720a 3b80 9846 2300 4767 c9bf
000003a0: afff 7b3f a8f6 3a80 9c98 2900 46a4 8abd
000003b0: 732d 0dbe cf2a b83e b8d1 c7bd 32e3 c93e
000003c0: dd8b 75be df49 82bd 0275 6f3e 886f 943e
000003d0: 3fe0 79bb 02dd 0b3e 4b14 063e c100 533b
000003e0: 78e1 8fbd b703 e8bd 8269 0d3c 8aba 4000
000003f0: edfc cebc d8a0 ba3c b398 09be 8d4a a33b

net.0.bias f4 [64]
-2.04457 -1.2372643 -0.63282335 1.2851211 -2.3256106 -0.49691162 -4.04736 -0.46980932
-2.9450898 -4.3313284 0.94448423 -8.247154 -2.0592065 -0.3324807 -1.9494703 -0.47572532
-2.1511905 -0.8757483 -3.346026 -1.2213846 -0.034855973 -1.5841329 -2.4187353 -0.795373
-0.8666767 -0.57417756 -0.4305548 -1.1071197 -0.9986431 -1.1502028 -0.5413983 -1.7100283
0.21926846 -2.0112221 -0.10315781 -0.62647635 -3.5061276 -0.7199447 -5.690247 -1.3603954
-6.209377 -1.8280054 -2.1301546 -4.2752385 -1.886303 -2.2518823 0.013269658 0.266997
-2.0964146 -1.479143 -1.6630981 -0.9403784 -2.5437713 -0.9863103 3.7720013 -2.7714117
-3.394901 -5.2666163 0.7950648 -1.2700657 0.5168479 -2.254958 -0.98772216 -1.0306963
00000000: 3cda 02c0 ad5e 9ebf b600 22bf d97e a43f
00000010: ced6 14c0 336b febe f983 81c0 d98a f0be
00000020: 5a7c 3cc0 3e9a 8ac0 b8c9 713f 58f4 03c1
00000030: 0aca 03c0 e93a aabe 3e88 f9bf 4592 f3be
00000040: 1bad 09c0 0a31 60bf 4a25 56c0 5556 9cbf
00000050: 23c5 0ebd dec4 cabf 8fcc 1ac0 919d 4bbf
00000060: 86de 5dbf 4dfd 12bf ae71 dcbe 19b6 8dbf
00000070: 13a7 7fbf d839 93bf 1499 0abf 35e2 dabf
00000080: e987 603e ddb7 00c0 6744 d3bd c160 20bf
00000090: 6564 60c0 4c4e 38bf 8116 b6c0 7021 aebf
000000a0: 37b3 c6c0 15fc e9bf 7454 08c0 c1ce 88c0
000000b0: 6072 f1bf d71e 10c0 fb68 593c d5b3 883e
000000c0: a82b 06c0 8f54 bdbf 66e0 d4bf a4bc 70bf
000000d0: 26cd 22c0 d57e 7cbf 7868 7140 cf5e 31c0
000000e0: 0f46 59c0 1f88 a8c0 5e89 4b3f 8391 a2bf
000000f0: 2550 043f 3b51 10c0 5cdb 7cbf dbed 83bf

net.2.weight f4 [64, 64]
-0.066770755 1.70775e-40 -0.19688714 -4.51468 0.56154966 1.06146e-40 -0.08009323 -0.19437562
-0.16101712 -0.1028008 0.30710733 -2.3074205 -0.14567299 -4.250324 -3.566708e-39 -0.35561377
-1.1945707 -0.0111931795 0.10510945 -0.6885416 -2.705147 0.0106776515 -0.22870009 -0.068586044
2.9898348 1.7990257e-07 -1.0202984 -0.16108225 9.0813e-41 -0.009506763 -0.043451987 0.25542787
-1.5448548 -1.8901526 1.5704195 -4.850019e-16 -0.17764995 -2.0522647 -1.10159 -0.00068912737
2.447666e-39 -0.22940719 -0.15945642 -0.0015716447 -2.4024684 0.3823756 -0.35853598 -0.3844934
1.1089083 -0.5125413 -0.23731616 -3.103058 0.6668861 -0.007365463 -2.2025192 -1.0988455
-0.1908772 -2.8381736 -0.47577912 -0.2357946 0.21506898 -0.119631894 -0.12664078 0.013038114
-6.7438125e-31 -2.6447027e-37 -0.00022749293 -0.002757677 -7.5191273e-22 6.04363e-40 -0.0003713109 -4.135177e-27
-3.65674e-05 -2.787182e-07 -6.067719e-05 -3.874758e-28 -2.1912812e-05 -2.6845102e-05 3.23898e-40 -3.5154332e-12
-1.0068973e-21 -1.9467547e-37 -1.0282808e-06 -2.8598872e-37 -0.0006424607 3.0006e-41 -5.303375e-06 -5.644326e-09
-0.0113411825 -1.8327506e-10 -0.000560586 -6.5349577e-06 5.87612e-40 -2.4252165e-08 -1.3748033e-08 -2.7379862e-08
-0.000109348446 -2.6952605e-07 -1.1656469e-08 -4.3587134e-25 -6.559732e-12 -1.275094e-13 -5.902432e-06 -1.0126117e-27
-1.254996e-05 -3.2210522e-05 -2.4566332e-26 -7.196808e-05 -1.9862891e-09 -1.9929203e-07 -0.005987 -0.00093650946
-5.8850665e-06 -3.090377e-07 -3.1950447e-05 -0.013970376 -3.2891703e-06 7.44843e-40 -0.004665241 -0.0010208411
-0.0012883823 -7.818543e-12 -2.7553955e-05 -8.422436e-05 -0.0014493882 2.74702e-40 -3.6123082e-13 -1.09378666e-13
-0.2198748 -0.3861968 -0.32635844 -0.70596063 -0.9986017 -0.0021722864 -3.2682962 0.07932607
-2.0447066 0.6414727 -0.2909215 2.7026982 -0.06268269 -0.7190111 -0.15611659 -1.513129
0.15760164 -0.07131609 -1.4501185e-20 -1.0389545 -1.2473174 0.0060360497 2.176532e-39 -1.5324254e-09
-0.0011105821 -5.024783e-36 -0.6375973 0.5443981 0.00016681064 5.93598e-40 -0.05733119 -7.769239e-06
-3.373853 -3.281194 -0.4329457 0.026209114 0.03539418 -0.26120663 -2.2505608 -0.2873139
-0.03493559 -0.56964076 2.595933e-39 0.5026782 -1.7770776 1.12408e-39 -1.9580326 -0.08443782
-0.14210774 0.06740962 -0.46290648 -1.4307109 -0.09626835 -0.288023 1.263276 -0.5828437
-0.015033069 -0.89137626 -0.29423845 -1.3118603 0.56787884 -0.18475296 -0.28033334 -4.8368237e-24
-7.5951725e-09 -2.9579029e-08 -5.1120143e-05 -0.00095523254 -6.8321347e-13 -2.55559e-40 -0.0027138542 -2.6903301e-08
-0.005295827 -7.033123e-07 -0.00389027 -3.3402333e-08 -1.1364366e-20 -0.00024720203 -4.7946987e-11 -7.6388915e-06
-8.030316e-06 -3.6646763e-21 -1.2347324e-06 -3.307249e-06 -0.006782295 -1.1219524e-25 -7.900731e-05 -1.8749757e-10
-0.020969365 -1.0816035e-10 -0.0029048836 -3.5669646e-07 -5.5528494e-18 -6.0054376e-08 -6.431152e-07 -0.0025603222
-0.018457105 -1.0869714e-08 -0.0008956393 -1.3861464e-11 -8.387552e-09 -2.1442014e-05 -0.0075985272 -4.4796705e-10
-8.776792e-05 -0.0024896 -2.5783538e-06 -0.0024425862 -0.003999979 -1.0833448e-06 -0.013437828 -0.0014443306
-0.0023236233 -0.0012235133 -0.00021394527 -0.035064813 -0.0025763188 1.0273711e-33 -0.036295887 -0.0035316658
-0.00011875159 -4.612334e-09 -0.003165978 -8.982761e-05 -0.008669737 -1.73737e-40 -3.2109182e-10 -2.6195e-40
00000000: 1bbf 88bd 0ddc 0100 c89c 49be 4278 90c0
00000010: b8c1 0f3f e427 0100 eb07 a4bd 670a 47be
00000020: ace1 24be 3a89 d2bd 2c3d 9d3e c7ac 13c0
00000030: 4d2b 15be a702 88c0 88d6 2680 0213 b6be
00000040: b1e7 98bf 9963 37bc a043 d73d 4344 30bf
00000050: 2121 2dc0 51f1 2e3c 5b30 6abe d776 8cbd
00000060: 7459 3f40 3e2b 4134 2399 82bf bff2 24be
00000070: 26fd 0000 41c2 1bbc b6fa 31bd 71c7 823e
00000080: cdbd c5bf 85f0 f1bf 8203 c93f d3ca 0ba6
00000090: dee9 35be 4e58 03c0 e700 8dbf 8ea6 34ba
000000a0: 19a7 1a00 b8e9 6abe 8b48 23be a5ff cdba
000000b0: 0bc2 19c0 bcc6 c33e 0792 b7be 52dc c4be
000000c0: b5f0 8d3f e835 03bf 0203 73be 8198 46c0
000000d0: 0cb9 2a3f fb59 f1bb 13f6 0cc0 f8a6 8cbf
000000e0: 5075 43be a3a4 35c0 5299 f3be 2474 71be
000000f0: 0b3b 5c3e 9101 f5bd 1fae 01be d09d 553c
00000100: 67d9 5a8d 38fd b382 2b8b 6eb9 25ba 34bb
00000110: 6e40 639c b894 0600 81ac c2b9 adcf a393
00000120: f25f 19b8 bda2 95b4 a37f 7eb8 8b97 f591
00000130: 68d1 b7b7 6b31 e1b7 e586 0300 6a60 77ac
00000140: 7428 989c 407d 8482 7603 8ab5 43a2 c282
00000150: cf6a 28ba a553 0000 a5f3 b1b6 04f0 c1b1
00000160: 5ed0 39bc 5883 49af 4af4 12ba dc46 dbb6
00000170: 0666 0600 1353 d0b2 7d30 6cb2 f430 ebb2
00000180: 0052 e5b8 61b3 90b4 b141 48b2 49e5 0697
00000190: d0cc e6ac 1590 0faa 810d c6b6 6974 a092
000001a0: ab8d 52b7 c919 07b8 0d4b f394 92ed 96b8
000001b0: 2b7f 08b1 fafc 55b4 992e c4bb 1680 75ba
000001c0: 5678 c5b6 d1e9 a5b4 8802 06b8 01e4 64bc
000001d0: 84bb 5cb6 521c 0800 e1de 98bb becd 85ba
000001e0: f0de a8ba 968b 09ad ab23 e7b7 9ca1 b0b8
000001f0: 66f9 bdba c2fd 0200 d95a cbaa 824c f6a9
00000200: dc26 61be 96bb c5be 7418 a7be d6b9 34bf
00000210: 5ca4 7fbf eb5c 0ebb c42b 51c0 b575 a23d
00000220: 79dc 02c0 8e37 243f aaf3 94be 02f9 2c40
00000230: c85f 80bd 1d11 38bf 07dd 1fbe 36ae c1bf
00000240: 5362 213e 2c0e 92bd b7f5 889e 76fc 84bf
00000250: 19a8 9fbf 0eca c53b 49b3 1700 6d9d d2b0
00000260: f490 91ba 0bbb d584 9439 23bf ad5d 0b3f
00000270: e4e9 2e39 b676 0600 1cd4 6abd a158 02b7
00000280: 35ed 57c0 15ff 51c0 0fab ddbe 7fb4 d63c
00000290: 7df9 103d e0bc 85be 3009 10c0 cf1a 93be
000002a0: 9f18 0fbd fad3 11bf 6844 1c00 85af 003f
000002b0: 4777 e3bf 7a3d 0c00 d0a0 fabf bced acbd
000002c0: b184 11be 0e0e 8a3d 1402 edbe 8921 b7bf
000002d0: 5728 c5bd c077 93be 07b3 a13f 3f35 15bf
000002e0: 434d 76bc 3c31 64bf 6ca6 96be 0aeb a7bf
000002f0: 8260 113f e12f 3dbe da87 8fbe 951d bb98
00000300: ec7b 02b2 f914 feb2 d669 56b8 9268 7aba
00000310: b84e 40ab 65c8 0280 ebda 31bb fc18 e7b2
00000320: 9e88 adbb 41cb 3cb5 e6f3 7ebb 4176 0fb3
00000330: b4aa 569e e59a 81b9 82df 52ae ca28 00b7
00000340: f2b9 06b7 9372 8a9d 15b9 a5b5 1bf2 5db6
00000350: 043e debb 17e4 0a96 bab0 a5b8 e027 4eaf
00000360: f2c7 abbc ddd8 edae dc5f 3ebb fd7f bfb4
00000370: 2edd cca2 3ef7 80b3 8aa2 2cb5 14cb 27bb
00000380: 5b33 97bc 82bd 3ab2 56c9 6aba 7cda 73ad
00000390: d818 10b2 60de b3b7 11fd f8bb c245 f6af
000003a0: 0b10 b8b8 8f28 23bb c807 2db6 cc13 20bb
000003b0: 4112 83bb 7267 91b5 562a 5cbc b14f bdba
000003c0: ee47 18bb 4b5e a0ba 7f56 60b9 1fa0 0fbd
000003d0: 75d7 28bb 89b3 aa08 ffaa 14bd 8573 67bb
000003e0: 460a f9b8 857a 9eb1 4c7c 4fbb d561 bcb8
000003f0: 830b 0ebc 4fe4 0180 a885 b0af 36da 0280

net.2.bias f4 [64]
0.04572894 -2.34776e-39 -5.5023427 -1.4669078e-13 1.762115 -1.3458781 -0.0820583 -1.9067171
-0.0008361362 -0.019577555 -9.05308e-08 -0.41248384 -3.1720548 -0.16589054 -3.368564 -1.2877724
-0.29751775 1.2805477 -1.5199273e-09 -6.2118436e-15 -0.94496554 -2.4770818 0.12699516 -2.3605049
-0.41428185 0.08593328 -8.594909e-07 -0.8496906 -0.22174008 -0.00075906905 -0.15281905 -0.087731995
-8.629537e-30 -0.058958814 -0.10313121 -2.0358548 -1.1845939 -3.0521183 -2.6941069e-20 -0.7518754
-0.030443365 1.1310254 -0.9014387 -1.6285248 3.65897 -0.07187869 -1.6774566 0.53434557
-1.9510313 -1.5210903 -1.6459491 -0.5149847 -1.989155e-14 -1.4634501 -2.7289298 -4.8904283e-05
-2.8487766 -0.037282992 -2.9192879e-18 -1.9690685 0.9852205 -0.012417939 -2.4740963 -4.2471954e-20
00000000: 454e 3b3d 9a90 1980 3113 b0c0 bd28 25aa
00000010: fc8c e13f bc45 acbf 2f0e a8bd 4e0f f4bf
00000020: 2730 5bba 1c61 a0bc d569 c2b3 1531 d3be
00000030: f202 4bc0 36df 29be 8d96 57c0 bad5 a4bf
00000040: 3f54 98be fde8 a33f b0e5 d0b0 25ce dfa7
00000050: 43e9 71bf 8288 1ec0 050b 023e 8312 17c0
00000060: c01c d4be cafd af3d c4b7 66b5 5385 59bf
00000070: d50f 63be 43fc 46ba 997c 1cbe d5ac b3bd
00000080: 1e07 2f8f cc7e 71bd 7536 d3bd 724b 02c0
00000090: c6a0 97bf e855 43c0 8273 fe9e e87a 40bf
000000a0: 5d64 f9bc 71c5 903f b0c4 66bf 8073 d0bf
000000b0: 912c 6a40 2235 93bd e6b6 d6bf dfca 083f
000000c0: 65bb f9bf 16b3 c2bf 76ae d2bf 0ad6 03bf
000000d0: cb2a b3a8 5552 bbbf c9a6 2ec0 931e 4db8
000000e0: 5b52 36c0 0db6 18bd ca67 57a2 700a fcbf
000000f0: 6937 7c3f 9c74 4bbc 9857 1ec0 7191 489f

net.4.weight f4 [1, 64]
5.574461 0.13106748 1.8554156 0.24895875 0.28925905 1.0324882 -0.23220609 0.7800301
0.009618331 -0.1588377 0.026573105 1.5203028 0.6842183 -0.18165898 2.5822432 0.8610836
-0.10702354 2.9538598 0.25467455 1.7482367e-09 0.44667986 3.809045 3.8681307 1.5000685
0.045011755 0.23596297 0.07922039 2.5563016 0.2743138 -0.1576341 0.047148377 0.21275574
0.23683426 0.09858048 0.15035866 5.3732 0.92543244 2.2086608 -0.0012466226 0.577885
0.7915204 1.7089863 -0.3571505 0.65856224 -0.043838635 0.06970194 0.4936206 -1.1768384
2.2393413 -1.737316 3.37903 -0.24369273 0.08550097 0.83031 5.687295 -0.056659766
4.04942 -0.28003624 -0.23727481 0.19709952 -0.07013014 0.2525451 1.3638434 0.2519244
00000000: fc61 b240 8e36 063e 427e ed3f 0bef 7e3e
00000010: c319 943e 9328 843f 6fc7 6dbe 0db0 473f
00000020: 3496 1d3c 5aa6 22be d7af d93c 4899 c23f
00000030: ee28 2f3f d004 3abe 7943 2540 fa6f 5c3f
00000040: 282f dbbd 0a0c 3d40 b464 823e 9c46 f030
00000050: 39b3 e43e 65c7 7340 748f 7740 3f02 c03f
00000060: 3f5e 383d 47a0 713e 4d3e a23d 729a 2340
00000070: dc72 8c3e d56a 21be a81e 413d a4dc 593e
00000080: ae84 723e 90e4 c93d 9ff7 193e 41f1 ab40
00000090: 24e9 6c3f b35a 0d40 b765 a3ba 45f0 133f
000000a0: 15a1 4a3f 10c0 da3f 6edc b6be 8997 283f
000000b0: 2490 33bd e4bf 8e3d d7bb fc3e a4a2 96bf
000000c0: 5e51 0f40 5f60 debf 0742 5840 968a 79be
000000d0: 221b af3d 328f 543f 52fe b540 1214 68bd
000000e0: d994 8140 e960 8fbe 2bf8 72be 75d4 493e
000000f0: 64a0 8fbd 974d 813e 6c92 ae3f 3cfc 803e
