learch/train/trained/feedforward_2.pt (torch_old, 32513 bytes, 5 tensors)

net.0.weight f4 [64, 47]
-0.05670386 -0.4091074 -0.03837434 0.2502757 0.31673285 0.517766 0.63466465 0.056957915
0.29473507 -0.5973175 0.5599833 1.080756 2.9770555 1.0628864 1.3986429 -0.016139237
1.56267e-39 0.18835469 0.022950208 1.9177132 -0.28547683 -0.04889262 -0.332675 -2.64694e-40
-0.06249251 0.016933441 -0.09350673 0.008573005 0.06420921 -0.00016297892 0.025597736 1.5822152
-0.16304913 0.010491752 -0.5350112 -0.4256852 -0.003953047 -2.1580756 1.111657e-39 0.03544777
-0.0177978 1.045676e-39 1.658193e-39 -0.86368716 -0.117978975 6.76376e-40 -6.70971e-40 0.06399711
-0.34040415 -0.1630232 0.30104017 -1.2999438 0.7127605 -0.6559797 0.38511613 -0.31298554
0.5871662 -1.335269 0.22480406 0.48101383 0.065412335 1.184572 0.062475637 -1.759923e-39
0.14707588 -0.08350345 -0.38683993 -0.040089484 0.0041654604 0.03920785 -7.58363e-40 -0.012303239
0.14851649 0.034646444 0.009519111 0.3076434 0.019897867 0.030082976 -0.14069067 -0.96395653
-0.00022137095 0.39130643 0.20141464 0.016716959 1.4793042 1.97073e-40 0.014169285 0.004412436
-1.460628e-39 -3.12237e-40 -0.9565912 -0.2164279 -8.24265e-40 -1.141649e-39 -0.110856235 0.027735697
0.60033584 -1.5091852 -1.0105876 0.06734739 1.210925 0.39506286 -1.1387442 -0.09329484
1.8972213 0.44362253 1.1866425 1.0843111 4.8905964 0.050685097 8.01491e-40 -0.005954585
-0.0035977545 -0.2915556 0.14943753 -0.046429098 0.21404205 7.82275e-40 0.028797835 0.22557068
0.031299323 0.012081652 0.076613545 0.0040470078 0.030667037 -0.95118314 0.27416942 -0.015807612
0.25937593 0.19744001 0.0023326504 2.1386743 6.16672e-40 0.052030776 0.08803577 -9.10248e-40
-7.94637e-40 1.394413 -0.064235486 -2.594e-42 -6.16419e-40 -3.1585007 0.64179784 -0.2576281
0.011046096 -0.8248563 0.3698942 0.3651797 0.025486615 0.033521738 0.32116604 -0.10594112
0.80009615 0.19533831 0.2381542 2.0079536 0.10602926 8.77375e-40 -0.0636034 0.05741728
-0.41772944 0.18048283 0.07541672 0.18323018 5.59739e-40 0.121761836 0.17003964 0.1075413
0.04742823 0.26459208 0.040213693 0.036064867 1.4286556 0.6281826 0.039816808 0.6180172
0.42408344 0.08912363 1.5222578 -8.93102e-40 0.033315226 0.1548301 -1.919294e-39 6.08248e-40
-1.6780368 0.2274392 -1.406762e-39 2.4891e-41 0.17520298 -0.5185839 -0.30060285 0.32131073
0.17426191 0.009131734 0.041338984 -0.79052675 0.19104713 0.7647245 1.4963751 -1.2100914
-1.4634509 0.0040618777 -0.091966644 0.31259555 1.465139e-39 0.69412184 0.27130973 5.3831224
0.2623953 0.16055489 0.11339023 1.65371e-40 0.29140326 0.21384963 0.15749733 0.079927824
0.24678752 0.051522836 0.025045224 1.1870811 1.2595179 0.034895092 0.25534007 0.05852937
0.13316359 -0.7400392 1.670213e-39 0.09080803 0.212978 1.177259e-39 -3.82386e-40 -0.22283907
0.45853615 -5.9803e-40 -6.89372e-40 0.6245821 -0.70736134 -0.42476746 0.42706284 -0.12364616
-2.4142318 0.4378307 -0.70163625 -0.59686834 -0.28098142 1.1998369 -0.013973875 -0.29785356
0.1861506 0.31091002 0.0037168036 1.450066e-39 -0.13314086 0.007475925 -0.9628182 -0.052195843
00000000: 4f42 68bd 8676 d1be 692e 1dbd 2324 803e
00000010: cf2a a23e 508c 043f 6279 223f b44c 693d
00000020: 84e7 963e cde9 18bf 115b 0f3f 3656 8a3f
00000030: 1488 3e40 a90c 883f bb06 b33f 6f36 84bc
00000040: 1704 1100 0de0 403e 1302 bc3c a077 f53f
00000050: 052a 92be a143 48bd 6154 aabe dce1 0280
00000060: 25f8 7fbd 00b8 8a3c 7580 bfbd ca75 0c3c
00000070: 1e80 833d 52e5 2ab9 58b2 d13c 0786 ca3f
00000080: 5af6 26be 99e5 2b3c 7ef6 08bf 69f3 d9be
00000090: 9088 81bb e91d 0ac0 d91a 0c00 ae31 113d
000000a0: b1cc 91bc eb62 0b00 5e0e 1200 9a1a 5dbf
000000b0: f69e f1bd 765d 0700 654e 0780 eb10 833d
000000c0: 7449 aebe 8eef 26be f021 9a3e 8f64 a6bf
000000d0: 7977 363f 49ee 27bf f12d c53e a43f a0be
000000e0: 8650 163f 18ea aabf 0933 663e 7247 f63e
000000f0: e7f6 853d 0ea0 973f 74e6 7f3d f329 1380
00000100: 0f9b 163e db03 abbd e20f c6be df34 24bd
00000110: 6a7e 883b 6998 203d 0242 0880 8693 49bc
00000120: b514 183e 6ee9 0d3d 0cf6 1b3c 7083 9d3e
00000130: da00 a33c 9370 f63c 3711 10be dbc5 76bf
00000140: d01f 68b9 5159 c83e a43f 4e3e 01f2 883c
00000150: d759 bd3f 5c25 0200 4a26 683c 3296 903b
00000160: a3e7 0f80 6466 0380 29e3 74bf 479f 5dbe
00000170: b7f9 0880 746e 0c80 9808 e3bd f935 e33c
00000180: 9caf 193f fb2c c1bf ef5a 81bf 6eed 893d
00000190: 97ff 9a3f ae45 ca3e 5fc2 91bf 5d11 bfbd
000001a0: 26d8 f23f 7e22 e33e e7e3 973f b5ca 8a3f
000001b0: c47f 9c40 2d9b 4f3d 3bba 0800 ae1e c3bb
000001c0: 4ec8 6bbb c746 95be 2706 193e 702c 3ebd
000001d0: d72d 5b3e aa84 0800 70e9 eb3c 00fc 663e
000001e0: b833 003d 1ff2 453c 90e7 9c3d c39c 843b
000001f0: 7039 fb3c bd80 73bf ef5f 8c3e f77e 81bc
00000200: eccc 843e b72d 4a3e 61df 183b 0ae0 0840
00000210: 08b7 0600 391e 553d 194c b43d 67e9 0980
00000220: 20a7 0880 207c b23f e58d 83bd 3b07 0080
00000230: 53b6 0680 e024 4ac0 dd4c 243f d5e7 83be
00000240: affa 343c c829 53bf c662 bd3e d5f8 ba3e
00000250: 4ec9 d03c 174e 093d e06f a43e a8f7 d8bd
00000260: 1ad3 4c3f c406 483e b2de 733e 5082 0040
00000270: de25 d93d c48d 0900 8042 82bd 622e 6b3d
00000280: a2e0 d5be 7ed0 383e 1574 9a3d b1a0 3b3e
00000290: 5318 0600 455e f93d df1e 2e3e 9d3e dc3d
000002a0: 1b44 423d 9d78 873e 1db7 243d c1b8 133d
000002b0: 30de b63f 93d0 203f f316 233d 6036 1e3f
000002c0: 7721 d93e 7386 b63d 58d9 c23f 9bb9 0980
000002d0: 8c75 083d c88b 1e3e 36e6 1480 8c9f 0600
000002e0: e9c9 d6bf d2e5 683e 7b51 0f80 6345 0000
000002f0: 6968 333e eac1 04bf 9ee8 99be d782 a43e
00000300: b771 323e 459d 153c 1153 293d f65f 4abf
00000310: dca1 433e fcc4 433f 3889 bf3f 46e4 9abf
00000320: 5c52 bbbf 8019 853b 0259 bcbd 860c a03e
00000330: 36f4 0f00 f8b1 313f 1ce9 8a3e 8a42 ac40
00000340: ad58 863e 8068 243e 2339 e83d fdcc 0100
00000350: cf32 953e 66fb 5a3e fb46 213e 33b1 a33d
00000360: deb5 7c3e 9c09 533d a42b cd3c 46f2 973f
00000370: e237 a13f 28ee 0e3d efbb 823e 7ebc 6f3d
00000380: 095c 083e 3673 3dbf e02f 1200 8ff9 b93d
00000390: e816 5a3e b8d1 0c00 f029 0480 ed2f 64be
000003a0: 40c5 ea3e 1083 0680 b081 0780 9de4 1f3f
000003b0: a215 35bf 1f7b d9be fba7 da3e 333a fdbd
000003c0: c682 1ac0 582b e03e 6f9e 33bf 5dcc 18bf
000003d0: ccdc 8fbe 4194 993f aef2 64bc 4380 98be
000003e0: 439e 3e3e 992f 9f3e 9e95 733b 32ca 0f00
000003f0: 1456 08be 9bf8 f43b 417b 76bf 4fcb 55bd

net.0.bias f4 [64]
0.015304023 -0.3756259 0.15535201 -0.72017765 -0.420663 -0.42548192 -0.26236728 -0.5661247
-0.21082132 -1.8265698 0.36372477 -0.82219344 0.5893655 -0.47924763 -0.31900772 -0.9798242
-0.20410056 -0.47666788 -0.38892353 -0.3937845 -1.2138944 -0.7204117 -0.41896266 -0.6629952
-0.057093196 -0.7312599 0.5587977 -0.5270711 0.09149151 -0.83638746 -0.32915208 -0.30918974
-0.5603539 -0.04422207 0.44958916 0.38053316 -0.60049343 -0.1268709 -0.559681 0.17493308
-0.62053806 0.16775142 -0.4668146 0.016474536 -0.5928436 -1.7067244 -0.5276021 0.21664523
0.42028013 0.19194745 0.104465246 -1.1790793 0.2448567 0.0021402247 0.027150229 -0.4706795
-0.4749412 -1.0076523 -0.83488417 0.10343367 -0.12868269 -0.22215986 -0.4510688 -1.3360641
00000000: babd 7a3c 0a52 c0be 9914 1f3e 905d 38bf
00000010: 2461 d7be c4d8 d9be 0155 86be 8ced 10bf
00000020: 8be1 57be 0acd e9bf 223a ba3e 457b 52bf
00000030: a8e0 163f f25f f5be fb54 a3be c2d5 7abf
00000040: bdff 50be d00d f4be fc20 c7be 1f9e c9be
00000050: e460 9bbf e76c 38bf 4682 d6be 0eba 29bf
00000060: 8eda 69bd d933 3bbf 5e0d 0f3f 22ee 06bf
00000070: e75f bb3d 7d1d 56bf 9f86 a8be 1e4e 9ebe
00000080: 5a73 0fbf 3422 35bd 8d30 e63e 3ed5 c23e
00000090: f0b9 19bf 72ea 01be 4147 0fbf a821 333e
000000a0: 95db 1ebf 07c7 2b3e 5302 efbe 9bf5 863c
000000b0: 99c4 17bf f275 dabf ee10 07bf 3fd8 5d3e
000000c0: f52e d73e df8d 443e e0f1 d53d 12ec 96bf
000000d0: b7bb 7a3e 0343 0c3b 286a de3c e7fc f0be
000000e0: 7e2b f3be c0fa 80bf f8ba 55bf 08d5 d33d
000000f0: 65c5 03be e07d 63be 7df2 e6be 2604 abbf

net.2.weight f4 [64, 64]
0.708743 0.12490547 -2.3416734 -0.6483339 -0.7042468 0.47997266 0.63525844 0.47949094
0.073236085 -0.9128298 -0.47362936 0.5113461 -1.7290064 -1.4236636 1.0823964 -0.26509017
-0.79914606 -0.8441753 -0.44998783 -1.912624 1.0608956 0.4076423 -2.461868 0.068408996
0.57614267 -0.75161886 -2.1975381 -0.239976 0.97613454 0.26796418 -1.912628 -2.2372215
0.06298388 -0.0028066968 -0.002263475 -1.2182647 0.8862415 -1.4632417 -3.777046 -0.13002428
-0.21463057 -0.052911583 0.5747898 0.17067723 -3.9686604 -1.9168091 -0.07115051 -0.24938053
-0.32973412 -0.58625877 -0.19152488 -0.93470937 0.15571314 0.005799092 0.59002787 0.53148955
0.15697552 0.41683218 -4.0216527 0.13029394 0.4487336 1.1702114 -0.119114205 2.1530337
0.62160945 0.4377364 -0.018051686 -0.3172628 0.14734899 -0.18904419 0.058349814 -0.050350387
-0.13833146 -0.15610972 -0.9600884 -1.0051281 -1.1151146 -0.4555103 0.7970105 -0.27857712
-0.0036082747 0.06772969 0.52599686 -0.3044741 0.18371612 0.4137473 0.2517225 -0.18387535
-0.15258248 0.05465614 -0.21780951 0.5146582 0.037528116 -0.14787197 0.30593684 0.36353743
-0.6479836 0.48954096 -0.15062243 -0.41877434 0.32265854 -0.11019463 0.30868453 -0.33052644
0.0033716436 0.24170296 0.16080661 -0.13299574 -0.4502139 0.057098903 0.38776565 -0.14568521
-0.20268396 0.073213786 -0.10109478 -0.632673 -0.83199906 0.22336005 0.34324026 -0.40275806
-0.4055658 -1.1614991 -0.11166543 -0.78596383 -0.13236496 0.698697 -0.05345166 0.6298722
-0.3866112 0.55346674 1.0461053 -0.34143493 -0.56403154 0.06989553 0.19302179 -0.22218274
-0.5554719 0.45030588 -0.0017595689 -0.7844405 0.013221324 -1.3547603 -0.78376377 -0.41705075
0.034448918 -0.1730027 -0.38746178 -0.044451576 -1.3798627 0.7495467 -1.1710143 -0.025845729
0.23684865 -0.5614817 -0.14391473 0.19976789 0.17287947 -0.72584826 -1.2661059 0.84283966
0.053702738 -0.3965702 -0.9883828 -2.7201474 -0.5439678 0.13241585 -2.9999785 -0.3293891
0.34296054 0.5009722 -0.9255223 -0.027654195 -0.79175395 0.5361014 -0.019581992 -0.8421893
0.49671793 -1.0708667 -0.8393073 0.26586965 -0.9410814 0.011895057 0.8391091 0.6948812
-0.045549616 0.027834823 -1.2145617 0.46341124 -0.0745568 0.3239908 -1.183884 1.7712297
-0.855859 0.21789725 -2.3198743 -0.13841334 0.80255336 -1.3884219 -0.6114655 -1.249443
-0.8578443 -1.0318198 0.5317529 -0.741134 -0.3466255 -2.704235 -0.82533854 -0.3844474
0.93544966 -0.46423617 -1.9794048 -1.6533046 0.31934258 -1.1377659 0.21346566 0.91968703
-1.5480388 -0.7398809 0.23641682 0.0040113027 -0.001979761 0.005557603 0.06488643 0.7051626
-1.5152684 0.40647393 0.6723112 0.23004793 -0.96465117 -0.25524318 -0.9245223 -0.24339943
0.19619729 -1.835657 -2.9778068e-12 -1.2012751 0.3667433 -0.06506178 0.056294534 0.15479982
-0.50044453 -2.5105042 0.7418394 -1.4391987 -0.09877564 0.45149466 -0.5996844 -0.38374394
-1.1702406 -1.0039337 -0.16826428 -1.0983384 0.207204 -0.44899198 -0.05937492 8.858e-40
00000000: 2e70 353f 70ce ff3d fadd 15c0 36f9 25bf
00000010: 8549 34bf fabe f53e 4ca0 223f d67f f53e
00000020: cdfc 953d 37af 69bf 8c7f f2be 94e7 023f
00000030: 1550 ddbf 9c3a b6bf f78b 8a3f e6b9 87be
00000040: d694 4cbf df1b 58bf ce64 e6be ddd0 f4bf
00000050: 6dcb 873f 7eb6 d03e 3f8f 1dc0 041a 8c3d
00000060: 167e 133f 186a 40bf 77a4 0cc0 45bc 75be
00000070: f4e3 793f 9a32 893e ffd0 f4bf a32e 0fc0
00000080: b1fd 803d 8ff0 37bb cf56 14bb 19f0 9bbf
00000090: b9e0 623f 814b bbbf 1fbb 71c0 1625 05be
000000a0: 1ec8 5bbe d1b9 58bd 6d25 133f 03c6 2e3e
000000b0: 88fe 7dc0 005a f5bf 5cb7 91bd 9c5d 7fbe
000000c0: e9d2 a8be 0e15 16bf 191f 44be 1d49 6fbf
000000d0: 4473 1f3e 4f06 be3b 110c 173f b30f 083f
000000e0: 31be 203e 076b d53e 61b1 80c0 c66b 053e
000000f0: 69c0 e53e 7dc9 953f 26f2 f3bd 4ecb 0940
00000100: cc21 1f3f fc1e e03e 21e1 93bc 4570 a2be
00000110: a7e2 163e cd94 41be 3700 6f3d 353c 4ebd
00000120: c3a6 0dbe 3adb 1fbe 5ac8 75bf 0aa8 80bf
00000130: 13bc 8ebf a538 e9be e108 4c3f a9a1 8ebe
00000140: ce78 6cbb ddb5 8a3d bba7 063f 07e4 9bbe
00000150: 1420 3c3e b0d6 d33e c6e1 803e d249 3cbe
00000160: 953e 1cbe 1edf 5f3d 7509 5fbe a4c0 033f
00000170: 15b7 193d c06b 17be c1a3 9c3e 9421 ba3e
00000180: 41e2 25bf 1da5 fa3e c43c 1abe 9769 d6be
00000190: 8033 a53e b9ad e1bd e60b 9e3e c33a a9be
000001a0: cbf6 5c3b fb80 773e 7daa 243e 0930 08be
000001b0: 7082 e6be 8ae0 693d 3889 c63e 812e 15be
000001c0: 628c 4fbe 1cf1 953d c80a cfbd dcf6 21bf
000001d0: e4fd 54bf 7fb8 643e 30bd af3e 4e36 cebe
000001e0: 52a6 cfbe 01ac 94bf d8b0 e4bd ed34 49bf
000001f0: ae8a 07be cedd 323f 21f0 5abd 4e3f 213f
00000200: e7f1 c5be ffaf 0d3f c7e6 853f 8fd0 aebe
00000210: 5f64 10bf 6325 8f3d 81a7 453e df83 63be
00000220: 6833 0ebf 7e8e e63e 56a1 e6ba 18d1 48bf
00000230: 419e 583c c968 adbf bea4 48bf ad87 d5be
00000240: 4f1a 0d3d 9f27 31be 6461 c6be db12 36bd
00000250: 579f b0bf 4be2 3f3f cce3 95bf 6cba d3bc
00000260: 7488 723e 44bd 0fbf 625e 13be f48f 4c3e
00000270: 5107 313e 31d1 39bf c20f a2bf 57c4 573f
00000280: 67f7 5b3d 400b cbbe a806 7dbf e516 2ec0
00000290: 7941 0bbf 0598 073e a6ff 3fc0 b0a5 a8be
000002a0: 8698 af3e b73f 003f 08ef 6cbf 0d8b e2bc
000002b0: 63b0 4abf f13d 093f 6a6a a0bc b899 57bf
000002c0: d051 fe3e 2912 89bf d8dc 56bf 1120 883e
000002d0: b6ea 70bf 7ce3 423c dbcf 563f bce3 313f
000002e0: 3c92 3abd db05 e43c c276 9bbf 3d44 ed3e
000002f0: 3cb1 98bd 1fe2 a53e 8389 97bf a8b7 e23f
00000300: 9319 5bbf 7520 5f3e d278 14c0 3abc 0dbe
00000310: 2374 4d3f cfb7 b1bf 0189 1cbf c0ed 9fbf
00000320: af9b 5bbf ac12 84bf f520 083f f5ba 3dbf
00000330: e678 b1be 3012 2dc0 6349 53bf 4ad6 c4be
00000340: a179 6f3f 5db0 edbe 235d fdbf 7c9f d3bf
00000350: df80 a33e 50a2 91bf be96 5a3e 9c70 6b3f
00000360: 2326 c6bf d668 3dbf 4017 723e 3f71 833b
00000370: e1be 01bb 8e1c b63b 2de3 843d 8985 343f
00000380: 51f4 c1bf 5a1d d03e 961c 2c3f af91 6b3e
00000390: 61f3 76bf 3caf 82be 7ead 6cbf b33d 79be
000003a0: f1e7 483e cff6 eabf 668b 51ac 62c3 99bf
000003b0: c7c5 bb3e 1c3f 85bd 1995 663d d883 1e3e
000003c0: 221d 00bf 1aac 20c0 30e9 3d3f aa37 b8bf
000003d0: e24a cabd 4f2a e73e eb84 19bf 167a c4be
000003e0: 72ca 95bf e680 80bf 794d 2cbe 5a96 8cbf
000003f0: 492d 543e 47e2 e5be 1e33 73bd 40a5 0900

net.2.bias f4 [64]
0.04240211 0.4802133 -0.012411563 -0.22722766 -0.14566089 -0.79370284 1.1170489 -1.1196901
0.54053 0.4624642 -0.5127194 -0.32646114 -0.26182476 0.3664591 0.09338624 0.30605263
-0.0018646036 0.5056126 -1.274314 0.7537957 -0.33221966 -0.005900709 0.33647648 -0.10299343
-0.52611536 0.06619103 -0.034189414 -0.7579979 0.63851166 0.39437097 -0.3128496 -0.5343747
-1.1966089 -0.18748035 0.13514727 0.33233017 -0.107126616 -1.4021857 -1.2297688 -0.039944924
0.24116288 0.31416652 -0.41487822 -1.2464696 -0.83252776 0.50910693 -0.6600079 -0.7710125
0.07632882 1.055113 -0.1217028 -0.57276624 -0.31069365 0.5420285 -0.14672048 0.31731752
-0.43499795 0.17933437 -0.27829313 0.06356113 0.027338102 -0.21769826 0.4775429 -0.2619607
00000000: d6ad 2d3d 85de f53e de59 4bbc 5eae 68be
00000010: 2128 15be 1c30 4bbf 75fb 8e3f 0152 8fbf
00000020: 2d60 0a3f 1cc8 ec3e 9441 03bf ea25 a7be
00000030: e50d 86be 87a0 bb3e 4941 bf3d eeb2 9c3e
00000040: b765 f4ba d46f 013f b91c a3bf c1f8 403f
00000050: b218 aabe bc5a c1bb a546 ac3e 38ee d2bd
00000060: 7faf 06bf 2a8f 873d 330a 0cbd 260c 42bf
00000070: 8075 233f feea c93e d32d a0be c8cc 08bf
00000080: 7b2a 99bf d9fa 3fbe 0c64 0a3e 2e27 aa3e
00000090: 3365 dbbd d27a b3bf 1069 9dbf 4a9d 23bd
000000a0: 67f3 763e 6fda a03e eb6a d4be 518c 9fbf
000000b0: 8a20 55bf d554 023f 47f6 28bf 1361 45bf
000000c0: 4952 9c3d f10d 873f 513f f9bd cfa0 12bf
000000d0: 3d13 9fbe 61c2 0a3f e53d 16be 7177 a23e
000000e0: 0db8 debe 6ea3 373e 707c 8ebe 562c 823d
000000f0: 28f4 df3c 4bec 5ebe 8180 f43e b61f 86be

net.4.weight f4 [1, 64]
7.1116533 0.27433527 2.33518 4.9089828 -1.0433679 -5.2804065 0.3593391 8.531832
-0.7389808 -0.33809036 2.647349 0.65159005 0.16013533 0.60629964 0.83798313 -0.6045712
-1.7501783 -0.521491 7.484457 -0.44039556 1.1151402 -0.012658577 0.30789208 0.19033863
-2.319301 0.22222014 -0.9542962 2.710738 1.6641763 -1.2064219 5.9815316 0.45539206
0.95011526 0.06596352 6.0608325 0.513758 -1.6761942 0.6378673 5.274107 -0.4648848
1.5296179 0.6195404 2.2628465 4.350467 -1.9432756 -0.370501 0.57073796 10.087089
3.5507143 1.003079 0.30993795 2.3324583 -0.4758892 -0.93518233 2.5121267 -1.6765462
7.201042 -0.83548653 -2.208301 6.285351 -0.84423554 1.5948132 -0.5532174 7.302658
00000000: aa92 e340 ac75 8c3e 9773 1540 6316 9d40
00000010: 148d 85bf 17f9 a8c0 4bfb b73e 6282 0841
00000020: d92d 3dbf 2e1a adbe 2b6e 2940 9bce 263f
00000030: 84fa 233e 7436 1b3f 1086 563f 2ec5 1abf
00000040: d805 e0bf 6f80 05bf ac80 ef40 877b e1be
00000050: eabc 8e3f ec65 4fbc 08a4 9d3e 21e8 423e
00000060: 6d6f 14c0 ad8d 633e c14c 74bf bb7c 2d40
00000070: bb03 d53f 086c 9abf b568 bf40 2629 e93e
00000080: c13a 733f e217 873d 57f2 c140 a585 033f
00000090: 888d d6bf 454b 233f 7cc5 a840 6105 eebe
000000a0: 85ca c33f 339a 1e3f 7ad2 1040 0737 8b40
000000b0: 41bd f8bf 4fb2 bdbe e21b 123f b764 2141
000000c0: e73e 6340 e564 803f 30b0 9e3e ff46 1540
000000d0: c0a7 f3be 1c68 6fbf afc6 2040 1199 d6bf
000000e0: f06e e640 72e2 55bf ce54 0dc0 9821 c940
000000f0: d21f 58bf d722 cc3f a89f 0dbf 60af e940
