learch/train/trained/feedforward_0.pt (torch_old, 32533 bytes, 5 tensors)

net.0.weight f4 [64, 47]
0	0x3eb948fa	0.3618849
1	0xbf219e91	-0.6313258
2	0xbf4ecef5	-0.8078454
3	0x3e54a5d9	0.20766391
4	0xbff9968a	-1.9499066
5	0x3eb1c8a9	0.34723404
6	0x3f03e134	0.5151551
7	0x3f177b2f	0.5917234
8	0x3e92058b	0.28519854
9	0xbe90fde0	-0.2831869
10	0xbee234d6	-0.44180936
11	0x3e8b8202	0.27247626
12	0x3ebba898	0.36652064
13	0x3e5daa99	0.21647109
14	0x3da52114	0.0806295
15	0x3e0aebdd	0.13566537
16	0x00110417	1.56267e-39
17	0x3e1f4069	0.15551914
18	0x3d12f657	0.03587946
19	0x3f0775f0	0.52914333
20	0x3e8b42bf	0.2719936
21	0x3b714ecd	0.003682065
22	0x3eb6f607	0.3573458
23	0x000de704	1.276734e-39
24	0x3d8d9694	0.06913486
25	0x3e3be37e	0.183485
26	0x3d291446	0.0412791
27	0x3d112677	0.035437074
28	0x3d404223	0.046938073
29	0x3cdd6377	0.027024968
30	0x3cdda4b5	0.027056077
31	0x3eaaa971	0.333324
32	0x3f154f43	0.5832407
33	0x3ab64ce2	0.0013908411
34	0x3e3b5348	0.18293488
35	0x3ea5f064	0.32409966
36	0x3d356d35	0.0442936
37	0x400412e8	2.063654
38	0x8004ae07	-4.29771e-40
39	0x3d7155ba	0.058919646
40	0x3da15375	0.07877246
41	0x0003c1cb	3.45026e-40
42	0x00120e5e	1.658193e-39
43	0x3efad7bf	0.48992726
44	0x3e89da23	0.26924238
45	0x8004d78a	-4.44663e-40
46	0x800a5ba5	-9.51231e-40
47	0x3ec6916b	0.3878282
48	0xbf63fcff	-0.89057916
49	0x3e35ab14	0.17741042
50	0xbe56bddc	-0.20970863
51	0xbe0f1782	-0.13973811
52	0x3f832313	1.0245079
53	0xbeab8aeb	-0.33504423
54	0x3e59f2e8	0.21284068
55	0x3eb48e07	0.35264608
56	0x3e617ff0	0.2202146
57	0xbfb62273	-1.4229263
58	0x3dab3e84	0.08361533
59	0x3e7f67aa	0.24941888
60	0x3cda8055	0.026672522
61	0x3f375276	0.716102
62	0x3da378db	0.07982036
63	0x801329f3	-1.759923e-39
64	0x3e33c0e1	0.17554046
65	0x3d8432eb	0.06455024
66	0xbfcc5a88	-1.5965128
67	0xbeec2d06	-0.461281
68	0x3d5be470	0.05368465
69	0xbede06f8	-0.43364692
70	0x800b4f42	-1.038623e-39
71	0x3d4a2bf4	0.049358323
72	0x3e02e2b1	0.12781788
73	0x3db552c9	0.08853681
74	0x3dc13e25	0.09435681
75	0x3ddc5ae3	0.10759523
76	0x3defc313	0.11707129
77	0x3d135422	0.035968907
78	0x3d957bf7	0.07299035
79	0xbe9f3698	-0.3109634
80	0x3be3b1f3	0.0069487034
81	0x3eab1957	0.3341777
82	0x3e2665a9	0.16249718
83	0x3e253ede	0.16137263
84	0xbf73139e	-0.9495181
85	0x000fe0fc	1.458242e-39
86	0x3d847333	0.06467285
87	0x3e89d737	0.26922008
88	0x8006bfe3	-6.19849e-40
89	0x0008ce9c	8.08801e-40
90	0xbca1c305	-0.019746313
91	0xbe834780	-0.25640488
92	0x800c06f7	-1.104524e-39
93	0x00045a6c	3.99779e-40
94	0xbdb143e7	-0.086555295
95	0xbf20c15b	-0.6279504
96	0x3f8ecf2a	1.1156971
97	0xbd4cb23e	-0.049974672
98	0xbe7209d3	-0.2363656
99	0xbf16d1f3	-0.5891411
100	0xbeb5f7b0	-0.35540533
101	0x3d23f8f4	0.040032342
102	0x3f10cba3	0.56560725
103	0xbe0ab8e8	-0.13547099
104	0x405afb00	3.4215698
105	0x3e2fc1db	0.17163794
106	0x3ec9e8e4	0.39435494
107	0x3e0d3080	0.13788033
108	0x3eb9ad2e	0.36264938
109	0x3e8f3880	0.27972794
110	0x80099545	-8.80067e-40
111	0x3ec554ed	0.38541356
112	0x3dbea4b0	0.093087554
113	0x3fba5374	1.4556718
114	0x3c4d5a08	0.012533672
115	0x3d9808be	0.074235424
116	0x39fac8cc	0.0004783332
117	0x0005776a	5.02015e-40
118	0x3db7f8e7	0.08983021
119	0x3e061179	0.13092603
120	0x3d92436f	0.07141768
121	0x3d8da84d	0.069168665
122	0x3d5b0fc3	0.05348183
123	0x3d8f33e7	0.069923215
124	0x3c570113	0.013122815
125	0xbfafe57e	-1.374191
126	0x3f99dbda	1.2020218
127	0x3c35d528	0.011098184
128	0x3f1fa277	0.62357277
129	0x3ed4ae7e	0.41539377
130	0x3de605db	0.112315856
131	0x3f9070cf	1.1284426
132	0x800a11d8	-9.24756e-40
133	0x3dbdbe1e	0.092647776
134	0x3e9c61fc	0.30543506
135	0x80024847	-2.09599e-40
136	0x0009a860	8.86921e-40
137	0x3eafcaaa	0.34334308
138	0x3ea40717	0.3203666
139	0x801563fb	-1.964412e-39
140	0x000a128d	9.2501e-40
141	0x3f17e4cd	0.593335
142	0xbea9e076	-0.33179063
143	0x3e6fc2d7	0.23414169
144	0xbf8e5c9d	-1.1122013
145	0xbf98a88b	-1.1926435
146	0x3d9f0947	0.077654414
147	0x3fc9fbbe	1.5779951
148	0x3f871855	1.05543
149	0x3e340b08	0.17582333
150	0xbe9eb6c8	-0.30998826
151	0x3f95ce4e	1.1703584
152	0x3fce9810	1.6140156
153	0x3fe0feaa	1.7577717
154	0x3e962190	0.2932248
155	0x3e4b194c	0.19833869
156	0xbcb325bb	-0.021868577
157	0x000c9b04	1.157635e-39
158	0xbe75f639	-0.24019708
159	0x3d7b6ecc	0.06138496
160	0xc0505acc	-3.2555418
161	0x3edba52c	0.42899454
162	0x3da59d94	0.08086696
163	0x3efdcc9a	0.4957016
164	0x80061cad	-5.613e-40
165	0x3dcf5327	0.10123282
166	0x3dff42e7	0.124639325
167	0x3d9cad54	0.07650247
168	0x3d8272a4	0.06369522
169	0x3e030243	0.12793832
170	0x3d7a1f42	0.061064966
171	0x3d98e449	0.07465417
172	0x3ef95409	0.48696926
173	0x3e6ec25a	0.23316327
174	0x3b0050f3	0.00195795
175	0xbdd518d8	-0.10405129
176	0xbe0604a7	-0.13087712
177	0x3ceb5d6e	0.028731074
178	0xbfe3fe94	-1.7812066
179	0x00027b65	2.27937e-40
180	0x3dc410e7	0.09573536
181	0x3dd1be1d	0.10241339
182	0x0000768a	4.2524e-41
183	0x8014d7b4	-1.91409e-39
184	0xbf84d925	-1.0378767
185	0x3f8465e1	1.0343591
186	0x800f517b	-1.406762e-39
187	0x000e0103	1.28606e-39
188	0x3d4739ee	0.04863923
189	0xbd2d345d	-0.042286266
190	0xbf031080	-0.5119705
191	0x3deaf68f	0.114728086
192	0x3ec864b3	0.39139327
193	0xbeb1e076	-0.34741563
194	0x3eac7781	0.33684924
195	0xbcaa3f28	-0.020782068
196	0x3f1006b5	0.56260234
197	0x3f071726	0.52769697
198	0xbdb439b2	-0.08800067
199	0x3f14b49e	0.580881
200	0x3f21c2cf	0.6318788
201	0x3f6fd66f	0.93686575
202	0x3f33894f	0.7013139
203	0xbe915fa3	-0.28393278
204	0x0006cc76	6.2436e-40
205	0xbe9802ea	-0.29689723
206	0xbe160235	-0.1464928
207	0x4084c3db	4.148908
208	0x3e916471	0.28396943
209	0x3d54fc72	0.051998563
210	0x3e87faf1	0.2655864
211	0x00096e1d	8.6602e-40
212	0xbd31cde2	-0.043409236
213	0x3c82f594	0.015986241
214	0xbc11feb9	-0.008910828
215	0xbdb7d7de	-0.0897672
216	0xbd6dc9a9	-0.058053646
217	0xbdb2eda0	-0.087367296
218	0xbd4eab8f	-0.05045658
219	0x3f90cbf3	1.131224
220	0x3fb5e2d2	1.4209845
221	0xbce4afb2	-0.02791581
222	0x3e0da43b	0.1383218
223	0xbe0a8a4b	-0.13529317
224	0xbda63b18	-0.0811674
225	0xc079ceb2	-3.9032407
226	0x00122fe0	1.670213e-39
227	0xbd93b12d	-0.07211528
228	0xbdbb4a70	-0.09145057
229	0x8000e9e8	-8.391e-41
230	0x800429f0	-3.82386e-40
231	0xbe30c1c7	-0.1726142
232	0x3e11fe29	0.1425711
233	0x000a45d0	9.43399e-40
234	0x800781b0	-6.89372e-40
235	0x3ba6a468	0.0050855167
236	0xbea6c307	-0.3257067
237	0xbe6f4207	-0.23365031
238	0x3e1462eb	0.14490859
239	0xbebcc18b	-0.36866412
240	0xbe8871b7	-0.26649258
241	0xbf808922	-1.004185
242	0x3f4f0b80	0.8087692
243	0x3e9c4acf	0.30525824
244	0x3ea17408	0.31533837
245	0xbfcbe387	-1.5928811
246	0x3d1bd503	0.03804494
247	0x3c9f50e8	0.019447759
248	0x3dcdc970	0.10048187
249	0x3e0497e7	0.12948571
250	0x3d4d2765	0.050086398
251	0x00020e92	1.88898e-40
252	0x3dcced4b	0.100061975
253	0x3d8c0031	0.06835974
254	0xbe9ac34d	-0.30227128
255	0xbd73c637	-0.059515204

net.0.bias f4 [64]
0	0xbec8ab1c	-0.39193046
1	0xbf289794	-0.6585629
2	0xbf07c45a	-0.53033984
3	0xbbfadb55	-0.007655541
4	0xbc30cf37	-0.010791591
5	0xbf53f4c6	-0.8279537
6	0xbf57ac8b	-0.84247655
7	0xbf9c1f2f	-1.2197016
8	0xbedcd19a	-0.43128663
9	0xbfa5e624	-1.2960858
10	0x3e77448e	0.24147245
11	0xbf175dc6	-0.5912746
12	0x3e4d9293	0.20075445
13	0xbe2846ee	-0.16433308
14	0xbd59bbaa	-0.053157486
15	0xbf1f5797	-0.62243026
16	0x3e068e04	0.13140112
17	0xbf394f23	-0.7238638
18	0xbf86a6ef	-1.0519694
19	0x3f13f9d3	0.57803077
20	0xbf1cd2e6	-0.61259305
21	0xbe3fbaeb	-0.18723647
22	0xbe88c979	-0.2671621
23	0xbe0f842c	-0.14015263
24	0xbf30952e	-0.6897763
25	0xbddda877	-0.10823148
26	0x3dc52acf	0.09627306
27	0xbf1c1f40	-0.60985184
28	0xbea39c5d	-0.31955233
29	0xbf63a311	-0.88920695
30	0xbe3a4c02	-0.18193057
31	0xbe5e9cf8	-0.21739566
32	0xbf3a84d8	-0.72858953
33	0xbd9c25c7	-0.07624393
34	0xbe7ea2f6	-0.24866852
35	0x3edd7106	0.43250293
36	0x3d2a34fb	0.041554432
37	0x3e2fcfb5	0.17169078
38	0xbda76755	-0.08174006
39	0xbed69e64	-0.41917717
40	0xbe667865	-0.22506864
41	0x3ddbd333	0.107336424
42	0xbe38683e	-0.18008515
43	0xbdfa9272	-0.122349635
44	0xbea9d0a9	-0.33167008
45	0xbf94d23f	-1.1626662
46	0xbf00ee9c	-0.5036409
47	0x3e31fbb1	0.17381169
48	0xbf0486c6	-0.5176815
49	0x3f2f5e1d	0.6850298
50	0x3eb0516c	0.3443712
51	0xbf557f95	-0.833978
52	0xbea2acf4	-0.31772578
53	0x3e52f83d	0.20602508
54	0xbddd6e7c	-0.10812089
55	0xbe6a96f0	-0.2290914
56	0x3e847790	0.2587247
57	0xbee69992	-0.4503904
58	0xbe8f2874	-0.2796055
59	0xbeb2bb74	-0.3490864
60	0xbd309bb5	-0.043117244
61	0xbf298262	-0.66214573
62	0x3e01b4fc	0.12666696
63	0xbeee6da5	-0.46568027

net.2.weight f4 [64, 64]
0	0x3f385488	0.72003984
1	0x3ed9941a	0.42495805
2	0xbe694140	-0.22778797
3	0xbf0a9597	-0.54134506
4	0xbf0646d3	-0.5245182
5	0x3eace1a0	0.33765888
6	0xbf0c761b	-0.54867715
7	0xbdd2a382	-0.10285093
8	0x3ea8cd85	0.329693
9	0x3d6b6bf1	0.057475988
10	0xbd8ec8c7	-0.06971889
11	0xbdfdcc6f	-0.12392508
12	0xbeba462f	-0.3638167
13	0xbfb0ad00	-1.3802795
14	0x3effb103	0.49939737
15	0xbe7aadbe	-0.2448034
16	0xbcf16578	-0.02946733
17	0xbddf6661	-0.10908199
18	0xbeba20cd	-0.3635315
19	0x3db2f58f	0.08738243
20	0x3e42a36f	0.19007657
21	0x3ef0be31	0.47020105
22	0xbef6015e	-0.48047918
23	0xbe754ab1	-0.23954274
24	0x3e425f17	0.18981586
25	0xbbf4fa05	-0.0074760937
26	0x3e21582b	0.1575629
27	0x3efa9ea8	0.4894917
28	0x3f037802	0.5135499
29	0x3f266124	0.64991975
30	0x3e8e61fd	0.27809134
31	0x3de26f33	0.11056366
32	0xbede9a41	-0.4347706
33	0x3f081d79	0.5316997
34	0xbdffbbcc	-0.12486991
35	0x3bca1b7e	0.006167828
36	0x3db6b26b	0.08920749
37	0xbf3da182	-0.74074566
38	0xbee401c5	-0.445326
39	0xbeea33d9	-0.45742682
40	0xbf04ec4a	-0.5192305
41	0xbe734b4b	-0.2375919
42	0x3f84ea9e	1.03841
43	0xbe8a231e	-0.26979917
44	0xbf4a332f	-0.7898435
45	0xbe12841a	-0.14308205
46	0x3e7e7cd9	0.24852313
47	0xbfc4b6ee	-1.5368326
48	0x3e99e279	0.30055597
49	0xbf0c6e93	-0.5485622
50	0xbe0f424f	-0.13990138
51	0xbe5f76af	-0.21822618
52	0xbea6b82f	-0.32562396
53	0xbf590849	-0.8477827
54	0x3e5a75fb	0.21334068
55	0x3ef51f04	0.47875226
56	0xbeffcaac	-0.49959314
57	0x3e926086	0.28589267
58	0xbf0db00d	-0.5534676
59	0xbf1c25a0	-0.6099491
60	0xbdc49513	-0.09598746
61	0x3e50ac34	0.2037819
62	0xbe6b1545	-0.22957332
63	0xbe8cf1cb	-0.27528223
64	0xbe91f291	-0.28505376
65	0x3e43806e	0.19091961
66	0xbe9ef709	-0.31047848
67	0xbf1029fa	-0.5631405
68	0x3ea7a342	0.32741743
69	0xbe80b52c	-0.25138223
70	0xbed488cf	-0.41510627
71	0x3e208a63	0.1567779
72	0x3e942760	0.2893629
73	0xbee68413	-0.4502264
74	0x3e49444e	0.19654962
75	0xbdda31d4	-0.10654035
76	0x3e9f3569	0.31095436
77	0xbebd4cdb	-0.369727
78	0x3f4ad4e1	0.7923108
79	0xbd5521f6	-0.05203434
80	0xbecc2353	-0.398707
81	0x3d00e619	0.03146944
82	0x3ee1fcab	0.44138083
83	0xbc8c2fea	-0.017112691
84	0x3e1bd1d7	0.15216766
85	0xbeb58ed4	-0.35460532
86	0x3d832e93	0.06405368
87	0x3d255073	0.040359925
88	0x3ef56709	0.47930172
89	0xbf259aee	-0.6468953
90	0xbedfbac1	-0.4369717
91	0x3eb58268	0.35451055
92	0xbe987d44	-0.2978307
93	0x3e1a931c	0.1509518
94	0xbf53ade3	-0.82687205
95	0xbda2fb5e	-0.07958101
96	0x3dc39d2a	0.09551461
97	0xbf2df2e5	-0.6794875
98	0x3e875e84	0.26439297
99	0xbf00d839	-0.5032993
100	0xbe03b0b7	-0.1286038
101	0x3bdba638	0.0067031644
102	0xbea09063	-0.31360158
103	0x3f40863b	0.7520482
104	0xbd43ee2b	-0.047834557
105	0x3ee54f44	0.44787037
106	0x3e9e9373	0.3097187
107	0xbd48ed76	-0.049054585
108	0xbf224c88	-0.6339803
109	0xbf2569db	-0.6461465
110	0x3e66893b	0.22513287
111	0xbe5c4ff3	-0.21514873
112	0xbdf0af39	-0.11752171
113	0xbe65f466	-0.22456512
114	0xbeb4bd35	-0.35300604
115	0x3e22c551	0.15895583
116	0xbef9f52e	-0.4881987
117	0x3ddd008d	0.10791121
118	0xbe8685a1	-0.26273826
119	0x3f5436c6	0.8289608
120	0x3e8afd2b	0.27146277
121	0x3dc9f1b0	0.09860551
122	0xbef3b3f8	-0.47598243
123	0x3ba78d7b	0.0051133013
124	0xbd94c514	-0.07264152
125	0x3eaeea4b	0.34163126
126	0xbf076ed1	-0.5290347
127	0x3e8ef5d8	0.2792194
128	0xbf7739e8	-0.9657273
129	0x3f864c30	1.0492
130	0x3d80bf47	0.06286483
131	0xbeabea44	-0.33577168
132	0xc021b354	-2.5265703
133	0x3ecf6bf0	0.40512037
134	0x3f357c84	0.7089312
135	0x3f05b0ee	0.522231
136	0x3f95e153	1.1709388
137	0x3f5855c9	0.845059
138	0xc006c01a	-2.105475
139	0xbf4c6c7a	-0.7985302
140	0xbf5936b0	-0.8484907
141	0xc0306d53	-2.7566726
142	0xbd444d80	-0.047925472
143	0x3e523b14	0.20530349
144	0x3d808b2c	0.06276545
145	0xbd41b2b1	-0.047289554
146	0x3ef0128f	0.4688916
147	0xbf8fb160	-1.1226006
148	0xbe9f265c	-0.31083953
149	0x3e41bc83	0.18919568
150	0xbc04d4b0	-0.008107349
151	0xbc08a4f7	-0.008340112
152	0x3e302225	0.17200525
153	0xc00a3c4f	-2.159931
154	0x3d442a11	0.04789168
155	0x3dc51f1e	0.09625076
156	0x3eb588f4	0.3545605
157	0x3eec86ca	0.46196586
158	0xbed27146	-0.41102046
159	0x3f8612fc	1.0474544
160	0xbfe79efe	-1.8095396
161	0x3cc1e994	0.023670949
162	0xbe18c7cd	-0.14919968
163	0xbfa16a67	-1.2610596
164	0xbf23bca5	-0.63959724
165	0xbe20624b	-0.15662496
166	0xbf00fb09	-0.5038305
167	0xbea93378	-0.3304708
168	0x3c470d22	0.012149127
169	0xbeb0bc1e	-0.34518522
170	0x3f85a52f	1.0441035
171	0xbec4dffc	-0.38452137
172	0xc04221c0	-3.03331
173	0x3f7d4d51	0.989461
174	0xbd84108f	-0.06448471
175	0x3d9bb280	0.076024055
176	0xbe996f02	-0.29967505
177	0x3d027563	0.03185023
178	0x3e2e3d12	0.17015484
179	0xc06a8e76	-3.6649451
180	0xbe65ad7d	-0.22429462
181	0x3dbefc17	0.09325426
182	0x3f61f4a3	0.8826391
183	0x3f0d9ba9	0.55315644
184	0xc00d570f	-2.2084386
185	0x3e01a5e0	0.12660933
186	0xbfa8c801	-1.3186036
187	0x3f30f6ca	0.6912657
188	0xbfe76db7	-1.8080357
189	0xbf1ac2cf	-0.60453504
190	0x3e4edc47	0.20201217
191	0x3f4bde74	0.7963631
192	0xbe2ed540	-0.17073536
193	0x3f28f36d	0.6599644
194	0xbd8aa7b4	-0.06770268
195	0xbf63eb24	-0.8903067
196	0x3d4b32b8	0.049608916
197	0x3e82ca12	0.25544792
198	0x3eaa79e0	0.33296108
199	0x3aa35b35	0.0012463095
200	0xbf162c97	-0.5866179
201	0x3e5f5665	0.218103
202	0xbe03911c	-0.12848324
203	0xbcee11cc	-0.02906122
204	0xbc34da97	-0.011038444
205	0xbf0bdc9a	-0.54633486
206	0xbf29da37	-0.66348594
207	0x3f0812c1	0.53153616
208	0xbe8de805	-0.2771608
209	0xbe9d879e	-0.3076753
210	0xbeff43e3	-0.4985648
211	0xbdcd56c5	-0.100263156
212	0x3e59897b	0.21243851
213	0xbd70b496	-0.05876597
214	0x3e021048	0.12701523
215	0xbd15a6bc	-0.036535963
216	0x3ebb78ee	0.366157
217	0xbf81b8af	-1.0134486
218	0xbe8e24fd	-0.27762595
219	0x3f710a85	0.94156677
220	0xbf981685	-1.1881872
221	0xbe2dddfa	-0.16979209
222	0x3ebd7382	0.37002188
223	0xbd8d42a1	-0.06897474
224	0x3de8c1db	0.113651
225	0x3e504dbe	0.20342156
226	0xbf256fe3	-0.6462385
227	0x3e8f24d9	0.279578
228	0x3ec3f692	0.38274056
229	0xbe91843d	-0.28421202
230	0x3df3f6d2	0.119123116
231	0x3f31c2ce	0.69437873
232	0xbe8d019b	-0.27540287
233	0xbe9ab31b	-0.30214772
234	0xbe14f389	-0.14546026
235	0xbebd2d57	-0.36948654
236	0xbfa15862	-1.2605097
237	0xbe321eaf	-0.17394517
238	0xbd94b3a9	-0.0726083
239	0x3f08423c	0.53226066
240	0x3ea1b718	0.31585002
241	0xbe9461e2	-0.2898093
242	0x3e01a08e	0.12658903
243	0x3d14dc52	0.036342926
244	0xbfab535f	-1.3384818
245	0xbf1635db	-0.58675927
246	0xbdf53413	-0.11972823
247	0xbf2de048	-0.6792035
248	0x3f138493	0.5762417
249	0xbe070e62	-0.1318908
250	0xbf85654d	-1.042154
251	0x3f062e33	0.52414244
252	0x3f18c07d	0.59668714
253	0x3e18988a	0.14901939
254	0x3e667ed8	0.22509325
255	0x3f4f5be3	0.80999583

net.2.bias f4 [64]
0	0xbd3a4ddd	-0.045484412
1	0x3ef839f1	0.48481706
2	0xbed653c5	-0.41860786
3	0xbf07d10c	-0.53053355
4	0x3ae2f2de	0.0017314812
5	0xbdbfa6cd	-0.093579866
6	0x3f20a490	0.627511
7	0x3d470b55	0.04859479
8	0x3ef66e6a	0.48131114
9	0xbfb0fc04	-1.3826909
10	0xbe08b29e	-0.13349387
11	0xbf1b9444	-0.6077311
12	0xbc97ffaa	-0.018554527
13	0xbd3121e3	-0.043245208
14	0x3f06ce0b	0.52658147
15	0xbd8a1cb6	-0.067437574
16	0x3f0e5e6a	0.55612814
17	0xbc8e24cd	-0.017351532
18	0xbd06c892	-0.032906123
19	0xbee43c91	-0.44577459
20	0xbe773d29	-0.24144424
21	0x3e82e9b5	0.2556893
22	0x3f32a42e	0.6978177
23	0xbf514f3b	-0.8176152
24	0xbee472fc	-0.44618976
25	0x3f045479	0.51691395
26	0xbdb36cc5	-0.087609805
27	0x3cf54abb	0.02994286
28	0x3ecd9a10	0.40156603
29	0x3d0b7df3	0.03405566
30	0xbea75962	-0.3268538
31	0x3e8c2e64	0.27379143
32	0xbf4eec66	-0.80829465
33	0x3da8d80a	0.08244331
34	0xbe2855e6	-0.16439018
35	0x3de5d3db	0.11222049
36	0xbf1163dc	-0.56793
37	0xbf16b9ff	-0.5887756
38	0xbe3af363	-0.18256907
39	0xbda7b5e7	-0.08188992
40	0xbe8cd602	-0.27507025
41	0x3edd7f12	0.4326101
42	0xbe2c59f3	-0.16831188
43	0x3e17dc1f	0.14830063
44	0x3f0982ab	0.5371501
45	0x3e38030a	0.1796991
46	0x3e87a476	0.2649266
47	0xbf1fb44d	-0.6238449
48	0x3e679636	0.22615895
49	0x3d6dc599	0.058049772
50	0x3c666855	0.014062961
51	0xbe36fdc2	-0.17870238
52	0x3ec0529a	0.3756302
53	0xbdc8f757	-0.09812801
54	0xbec0dc74	-0.37668192
55	0x3e6d2a29	0.23160614
56	0x3f2c38ae	0.67273986
57	0x3e9466e0	0.28984737
58	0x3ed19853	0.40936527
59	0xbe9edb4a	-0.3102668
60	0x3f19feb6	0.60154283
61	0x3df7547d	0.12076662
62	0x3dbdbd09	0.09264571
63	0xbf21d446	-0.6321453

net.4.weight f4 [1, 64]
0	0x3f80f72d	1.0075432
1	0x3e45c513	0.19313459
2	0x4084b2af	4.146812
3	0xbfa85c98	-1.3153257
4	0xbb63727c	-0.003470569
5	0xbed93965	-0.424266
6	0x3e02a81d	0.12759443
7	0x40f485c7	7.6413302
8	0xbf16cf05	-0.58909637
9	0x3f98fb2e	1.1951654
10	0x3f72f596	0.94905984
11	0x40e7f13c	7.2481976
12	0x3cb14828	0.021640852
13	0xbf5d1561	-0.86360747
14	0x3f360c19	0.7111221
15	0xbf003e4e	-0.5009507
16	0xbf2c86c1	-0.6739312
17	0x3af8a6e4	0.0018970636
18	0x3c4d2306	0.012520557
19	0xbebb579d	-0.3659028
20	0x3eb6750b	0.35636172
21	0xbf5a9006	-0.8537601
22	0x3e303a6f	0.1720979
23	0x40c63acf	6.194679
24	0xbee845fd	-0.45365897
25	0x3e55c932	0.20877531
26	0xbf6db952	-0.928609
27	0x3f9818cd	1.1882569
28	0x3ef37d30	0.47556448
29	0xbf221d66	-0.6332611
30	0x3e9659b5	0.29365316
31	0x3eca94c1	0.39566615
32	0x3fa4f1e1	1.2886316
33	0xbf970ab3	-1.180014
34	0x410ba240	8.727112
35	0x3eebbbf6	0.4604184
36	0xbfb96671	-1.4484388
37	0x40295c36	2.646253
38	0x40d98a64	6.7981434
39	0xbfb82431	-1.4386045
40	0xbf048a35	-0.5177339
41	0x3ecc7381	0.39931872
42	0x3f85b128	1.0444689
43	0x3f260b79	0.64861256
44	0xbf18c8a9	-0.59681183
45	0xbee0e2cd	-0.43923035
46	0x40e48ded	7.142325
47	0xbf737553	-0.951009
48	0x3f14df3c	0.5815313
49	0x413cb3b3	11.793872
50	0x3f14c290	0.5810938
51	0x401f2e5d	2.4872048
52	0xbeed84d4	-0.46390402
53	0xbf056614	-0.52108884
54	0x3fa59473	1.2935928
55	0xbfd615ad	-1.6725365
56	0x3e5b6da3	0.21428542
57	0xbf88c679	-1.0685569
58	0xbf9f0369	-1.2422916
59	0x40ea1292	7.314767
60	0x3f8ab943	1.0837787
61	0x3efc0cdf	0.4922857
62	0xbf6d2509	-0.92634636
63	0x4027e953	2.623616
