learch/train/trained/feedforward_1.pt (torch_old, 32520 bytes, 5 tensors)

net.0.weight f4 [64, 47]
000000 8c 39 a4 3f f0 6b 4b be e1 71 54 3e 3c 6b 0b 3d
       1.2830062 -0.19865394 0.20746566 0.034037814
000010 11 dd 42 be d4 46 2e 3f a7 f7 3e 3f ca 4a b5 bf
       -0.19029643 0.68076825 0.7459664 -1.4163449
000020 df af ed bd 92 e7 bd bd 86 ff 19 3f a7 63 39 3f
       -0.116058104 -0.09272684 0.6015552 0.7241768
000030 04 8b 3d 3f f7 e8 6f be 5b c2 3c bf 88 f3 de 3d
       0.74040246 -0.23428713 -0.7373406 0.10886294
000040 a9 8d 10 80 05 63 84 3e a4 54 25 3c 40 2f 53 3f
       -1.520186e-39 0.25856796 0.010090981 0.8249397
000050 c7 3f dc 3c 24 7e 3d 3d 5c b0 bc bc dc e1 02 80
       0.02688588 0.046262875 -0.023033313 -2.64694e-40
000060 2a f9 26 3d 01 40 be 3d fa 29 aa 3c 44 3e 90 3b
       0.040764965 0.092895515 0.02077197 0.004401954
000070 76 34 51 3b 3a 25 b0 bc 62 d4 3f 3d 6e eb 5c bf
       0.0031922138 -0.021502126 0.046833403 -0.8629674
000080 d0 af b4 3f 96 fb ef 3c 5c a6 73 3d 88 d5 5e bd
       1.4116154 0.02929477 0.059484825 -0.054402858
000090 37 f3 b4 bb 02 31 b3 3f d9 1a 0c 00 53 fb ea 39
       -0.0055221575 1.3999331 1.111657e-39 0.0004481921
0000a0 63 15 0e 3d eb 62 0b 00 62 83 0f 80 c0 7e 3a 3e
       0.034688365 1.045676e-39 -1.424664e-39 0.18212414
0000b0 f2 8d bc 3d 6a 6b 09 80 65 4e 07 80 0d 83 10 3f
       0.092067614 -8.65052e-40 -6.70971e-40 0.5644997
0000c0 ed 45 62 bf fa 22 aa be 38 17 eb 3e 85 4f 1f bf
       -0.8838795 -0.3322981 0.45916152 -0.6223071
0000d0 93 db 87 3f 4c 3e 8a 3b 00 62 b3 3f 88 d7 06 3f
       1.0613884 0.004218852 1.4014282 0.52672625
0000e0 e0 30 df bd d5 a0 6b bf 0f e0 b8 bf 9f 45 06 be
       -0.10897994 -0.92042285 -1.4443377 -0.13112496
0000f0 e3 dd 6f 3e 15 fc 00 3f 87 4f 94 3a 0d 75 11 00
       0.23424487 0.50384647 0.0011315205 1.603193e-39
000100 26 ec 8a bd 98 d0 c3 bd 9e 91 09 bf 7a 9e ad bd
       -0.06783323 -0.095612705 -0.5373782 -0.08477493
000110 f1 95 94 3c aa 29 0e 3d 02 42 08 80 93 f6 89 bc
       0.018137904 0.034707703 -7.58363e-40 -0.016841209
000120 de 04 67 bd d3 74 07 3d d7 63 9d 3b f8 b6 8a bd
       -0.056401126 0.033070397 0.0048031616 -0.0677318
000130 04 cd cc bc b9 e5 47 bb 48 8c 2a bd 9b ff 94 be
       -0.025000103 -0.0030501916 -0.04163769 -0.29101261
000140 87 0a 4a bb 8e 52 c2 3e 1d d0 96 3e 0d 09 05 3d
       -0.0030829029 0.3795361 0.29455653 0.032479335
000150 e9 32 e5 3f 5c 25 02 00 6a 73 1f 3c 18 91 c1 3d
       1.7906162 1.97073e-40 0.009732107 0.094515026
000160 a3 e7 0f 80 64 66 03 80 24 5a 99 3e fc f6 27 bf
       -1.460628e-39 -3.12237e-40 0.29951584 -0.65611243
000170 b7 f9 08 80 74 6e 0c 80 94 2d 3f be c7 f8 aa be
       -8.24265e-40 -1.141649e-39 -0.1866973 -0.33392927
000180 cd da fa 3e 76 23 91 3e dd 9d 85 bf 55 7a c7 be
       0.48995057 0.28347367 -1.0438801 -0.3896052
000190 95 e8 80 3f 89 b7 71 3f e4 f1 e4 3e 54 79 bc 3e
       1.0070978 0.9442068 0.44715798 0.36811316
0001a0 13 3e 4a be 91 f2 a9 3f 61 e6 ec 3f 57 a5 5d 3f
       -0.19750242 1.327715 1.8507806 0.86580414
0001b0 ad 18 4a 3f 0f 19 04 bd 3b ba 08 00 15 96 02 bd
       0.789439 -0.03225046 8.01491e-40 -0.03188141
0001c0 02 93 8f 3b 38 c3 e3 3e f4 17 22 3e f5 be 1a bd
       0.0043815384 0.44484878 0.1582945 -0.037779767
0001d0 ab 69 75 3e aa 84 08 00 04 9f 95 3c ec 86 2d bd
       0.2396609 7.82275e-40 0.018264301 -0.042365
0001e0 9b b2 88 3c 44 c0 a7 3c c3 bb d3 bd 0a 8e 63 3c
       0.016686728 0.020477422 -0.10338547 0.013888845
0001f0 23 48 33 3c 16 19 a9 3e 2e 0e 31 3e c1 77 27 3c
       0.010942492 0.33026952 0.17290565 0.010221423
000200 8b 53 d4 3c f0 01 4d be aa 74 0b 3d 3f d1 83 bf
       0.025918743 -0.2002027 0.034046806 -1.0298232
000210 08 b7 06 00 13 37 47 3d 2a 2b 90 3d 39 d2 03 00
       6.16672e-40 0.048636507 0.07039483 3.5092e-40
000220 20 a7 08 80 23 a5 bf 3f eb 38 82 3e 3b 07 00 80
       -7.94637e-40 1.4972271 0.2543405 -2.594e-42
000230 53 b6 06 80 d3 b4 2a 3f e0 8f c8 3d 90 4d ec 3e
       -6.16419e-40 0.66682166 0.09793067 0.46152925
000240 d4 8c bb be c4 b4 44 3d 1b 22 e1 3e 07 2b 9a 3f
       -0.3663088 0.048023954 0.43971333 1.2044381
000250 20 ac 9e 3e aa c7 6d 3f 7f b4 b0 3e 5f 80 09 40
       0.30990696 0.9288279 0.34512708 2.1484601
000260 0e 61 d8 3e bc 5b 09 3f b9 eb d7 3e 15 35 88 3f
       0.42261547 0.536556 0.4217203 1.0641199
000270 10 bb 29 bd c4 8d 09 00 3a 81 1c be 8a 21 d5 3c
       -0.041438162 8.77375e-40 -0.15283671 0.02601697
000280 35 3b 0e bf 0c 94 2d bc 97 15 b6 3c f7 b4 04 3c
       -0.5555909 -0.010594379 0.022227092 0.008099786
000290 53 18 06 00 29 ff 04 3d 3e 0b bf 3d ad 15 12 3d
       5.59739e-40 0.032469902 0.09328316 0.035665203
0002a0 b0 a2 ff 3c 85 6d 0d bd 48 3e c4 3c 74 be 36 bc
       0.031205505 -0.034528274 0.02395548 -0.011153806
0002b0 b3 1b 08 bf e4 09 2a 3f e2 cf 90 bc 4d e6 bd 3e
       -0.53167266 0.6642134 -0.017677251 0.37089768
0002c0 4f ed 21 3e e9 2f 6d 3d b1 4d db bf 9b b9 09 80
       0.15813182 0.05790702 -1.7133085 -8.93102e-40
0002d0 3e 25 c5 3c 50 9e 3e 3e 36 e6 14 80 8c 9f 06 00
       0.02406561 0.18615079 -1.919294e-39 6.08248e-40
0002e0 1a bb 04 c0 2a 56 ce 3c 45 40 12 00 63 45 00 00
       -2.0739198 0.02518757 1.676094e-39 2.4891e-41
0002f0 f7 c6 da be 6a 94 14 3c da 1f 8b bd 09 8d a0 3e
       -0.42729923 0.009068588 -0.067931846 0.313576
000300 24 83 78 bf 29 bc a7 be a0 6a d7 bd 84 8f 2c 3c
       -0.97075105 -0.32760742 -0.10518384 0.010532264
000310 b3 70 f2 3d 04 c0 9b 3f 7b 08 40 3f e7 4f 17 be
       0.11837902 1.2167974 0.7501294 -0.14776574
000320 16 27 89 be 01 76 90 3e a1 40 2b 3e 05 1d f5 3c
       -0.26787633 0.2821503 0.16723873 0.029921064
000330 36 f4 0f 00 87 eb 82 3d 61 c9 4c 3c df d0 c2 3f
       1.465139e-39 0.063925795 0.012499184 1.5219992
000340 c6 e7 d6 3d b3 4b 7e 3c 26 27 a1 3d 3d da 04 00
       0.10493426 0.015520978 0.07868795 4.45631e-40
000350 ed 64 71 bb 29 72 0e be 85 fa 01 3c 86 02 34 3c
       -0.0036833838 -0.13910736 0.007933264 0.01098693
000360 61 e9 39 be 21 53 0f 3c 9d c9 8a 3d 62 5c ba 3e
       -0.18155433 0.008747847 0.06776736 0.36398607
000370 4f f8 47 be 56 18 87 3c cc 1e 1b 3e f7 2f f7 bd
       -0.19528316 0.016491096 0.15148467 -0.120696954
000380 28 6f a1 3c 83 a0 9d 3e e0 61 0f 80 e8 c5 e6 39
       0.019706324 0.30786523 -1.412643e-39 0.0004401647
000390 1d 0e 0d bc b8 d1 0c 00 90 f0 01 00 3c 85 d9 3d
       -0.008609322 1.177259e-39 1.78133e-40 0.106211156
0003a0 81 b4 8b 3e 10 83 06 80 d0 cd 0a 00 7a 07 a9 bd
       0.2728615 -5.9803e-40 9.92187e-40 -0.08253379
0003b0 92 41 05 3e 66 c4 8f be bc cd 57 3e 11 ef 3b bf
       0.13013294 -0.28079528 0.21074575 -0.7341166
0003c0 02 3e 53 bf 94 ba ee bf d2 83 ac bf 21 9f f9 3e
       -0.8251649 -1.8650689 -1.3477728 0.48754218
0003d0 56 1e 31 be df 29 be 3e d3 e7 cf 3e 79 d4 d9 3e
       -0.17296728 0.3714132 0.40606555 0.42544916
0003e0 68 99 77 3e c6 ab cd 3d be b3 58 3d 32 ca 0f 00
       0.24179614 0.10042529 0.05290579 1.450066e-39
0003f0 bf 6c f4 bd 77 60 9f bc c5 62 68 bf 6f 81 f5 3d
       -0.11934804 -0.019455178 -0.9077571 0.11987578

net.0.bias f4 [64]
000000 d8 bf e0 be 79 d8 47 be 77 cf 6c be 0c 25 0b be
       -0.43896365 -0.19516172 -0.23126017 -0.13588351
000010 21 76 dc bd 10 d2 75 bf ee c6 3c bf 18 cb 32 bf
       -0.10764719 -0.96023655 -0.7374104 -0.69841146
000020 f3 fc 5e be b2 f5 9a bf 64 a6 c8 bd d6 23 52 bf
       -0.2177618 -1.210623 -0.097973615 -0.8208593
000030 28 2c de be af 48 81 be 69 39 6d be 5a 3f dd 3d
       -0.43393064 -0.25250766 -0.23166431 0.10803099
000040 aa dc b8 3d 4f e8 96 be 2c 5d 84 bf df 2c 24 be
       0.09026463 -0.29474112 -1.0340934 -0.16032742
000050 5f 40 20 bf dc c4 48 bf 97 b4 d7 be a3 60 88 be
       -0.6259822 -0.78425384 -0.42129967 -0.26636228
000060 5f 6a e3 be cd 3a 30 bf ed db 19 3e 3c 9b 81 be
       -0.44417092 -0.6883972 0.15025301 -0.25313747
000070 d1 a7 c8 be 19 cd aa be 44 e4 2d be 9d ce 1f 3e
       -0.39190534 -0.33359602 -0.16981608 0.1560616
000080 83 94 7d be 1c 08 15 bd 76 34 69 bb 08 81 71 3e
       -0.24763684 -0.036384687 -0.0035584248 0.23584378
000090 b0 01 da 3e 40 60 7b be 7c 07 5d bf 70 46 fb be
       0.42579412 -0.24548435 -0.86339545 -0.49077177
0000a0 a9 a5 25 bf 14 e2 c7 3e 90 7b 8d bf 2d aa 87 be
       -0.647059 0.3903967 -1.1053333 -0.2649702
0000b0 ab 6c 02 bf 74 36 3c bf 3b 5c 1a bf fc 81 5e 3e
       -0.50947064 -0.7352059 -0.6029698 0.21729273
0000c0 97 61 4e be be 34 85 bd 32 17 ff 3e 32 b9 7a 3e
       -0.20154415 -0.065042004 0.49822384 0.24484709
0000d0 3c 19 0c 3e 2c 05 2a 3f 4c a4 bb bd fa 38 14 bf
       0.13681501 0.6641414 -0.091621965 -0.5789944
0000e0 93 36 55 be f5 21 89 be 22 5b 83 bf 53 dd 8d be
       -0.208216 -0.2678372 -1.0262187 -0.2770792
0000f0 36 f0 b6 be c5 e5 61 bf 77 ff 64 3e 27 96 11 bf
       -0.3573014 -0.88241225 0.22363077 -0.5686974

net.2.weight f4 [64, 64]
000000 96 a2 14 be be c1 be be f6 2a 96 c0 6d a0 23 c0
       -0.14515147 -0.3725719 -4.6927443 -2.5566666
000010 b5 91 d8 bc c5 27 48 bd a0 dc 4f bf 38 18 1f 3e
       -0.026436666 -0.048866052 -0.8119602 0.15536582
000020 84 b1 25 c0 da 6d 80 3d d7 78 a1 3e 11 bf 04 3f
       -2.5889597 0.062709525 0.31537506 0.51854044
000030 68 6f 0f be 0e e5 12 bc 2c da 1f bd f9 d9 04 3f
       -0.14007342 -0.008965744 -0.039026424 0.518951
000040 9f 19 a7 bf 8c 68 9e 3f e3 4f 10 bf 31 bf 8c be
       -1.3054694 1.2375655 -0.563719 -0.27489617
000050 76 f8 42 3f a2 73 3a bf c7 02 8d bf cd 94 b2 c0
       0.7616037 -0.7283269 -1.1016473 -5.580664
000060 68 05 84 3f 0f ec 00 bf 06 82 92 c0 27 75 01 3f
       1.031415 -0.50360197 -4.578372 0.50569385
000070 00 aa 5c bf 82 30 5a bf fd 80 60 3e 91 e0 db 3d
       -0.861969 -0.8523027 0.21924205 0.10736192
000080 9f 66 09 3f 01 af 84 3f 1f 20 ca 3e 54 c0 45 bf
       0.5367221 1.0365907 0.3947763 -0.77246594
000090 81 9d fb 3d 0a a7 4e be 19 ce 71 c0 fa d6 f1 bc
       0.12285901 -0.20180908 -3.7782042 -0.029521454
0000a0 af 48 7d 3e 0f 96 b8 3d 6b bd 15 be 6f 86 6d 3e
       0.24734758 0.090129964 -0.14623038 0.23195814
0000b0 10 de 1b c0 34 1b 14 be ae 7c fd be 97 59 34 3f
       -2.4354286 -0.14463502 -0.49509186 0.70449203
0000c0 d8 92 c6 be f8 6d 8d bd d5 da 8e bf 6f af d7 3e
       -0.38783908 -0.069057405 -1.1160532 0.42126033
0000d0 97 5e 74 bf ba 36 dd 3e 05 2d e0 3d ed 9b 8c 3e
       -0.9545683 0.43205816 0.10946087 0.27462712
0000e0 cf 29 17 c0 a5 9c 5e 3f ed a4 d1 3e 64 47 2f bf
       -2.3619268 0.8695777 0.4094614 -0.6846831
0000f0 af ac 82 bf 74 77 c6 3f 15 a2 db bf 58 88 2d bf
       -1.0208949 1.5505204 -1.7158839 -0.6778617
000100 47 2b e6 be dc 21 b8 37 d1 b8 cb bc fe b4 fb be
       -0.44954893 2.1950276e-05 -0.0248684 -0.49161524
000110 2e b7 0b 3e cc 7c 87 3d 83 6e bb be c7 b2 9f be
       0.13644096 0.066156 -0.3660775 -0.31191084
000120 ca 62 13 3e 1a a5 fa bd bd 66 f3 bd fc 48 df bd
       0.14393154 -0.12238522 -0.1188483 -0.109025925
000130 ae 47 74 be 04 03 90 3e a8 05 5e 3e ab e7 c0 3e
       -0.23855469 0.281273 0.21681845 0.3767675
000140 4e 83 14 be c0 11 39 bd 6a 3f cb bd a7 92 aa bd
       -0.14503214 -0.045182943 -0.09924205 -0.08328753
000150 85 13 c3 3e 80 74 ab be d6 5d 80 3e 77 cf 38 be
       0.3810083 -0.3348732 0.2507159 -0.18047892
000160 62 2a 52 3e 79 f9 b6 3d 58 5f 39 bd d7 d3 8e 3e
       0.2052398 0.08934302 -0.045256943 0.27895996
000170 2d 09 c4 3c eb 84 24 3e 02 0c d5 be 40 85 a9 3e
       0.023930157 0.16066329 -0.41610724 0.33109474
000180 17 07 5c be f7 c7 08 3e 66 0a f1 bc 6c 4f 0f bf
       -0.2148708 0.1335753 -0.029423904 -0.55980563
000190 02 42 bc bd 8d 8b ea bb 3e 97 b3 bd df bf 7a 3f
       -0.091922775 -0.007157749 -0.087690815 0.9794902
0001a0 68 63 e6 be cd fc 3a 3f 0b f8 c7 bd c5 32 94 be
       -0.44997716 0.73041993 -0.09764107 -0.28944984
0001b0 0d 93 c8 bd 86 bf 28 bc dd 0e 16 3f f4 12 27 be
       -0.09793673 -0.010299569 0.5861643 -0.16315824
0001c0 d3 ca 7d 3a b4 71 02 3d 15 b6 8e be b3 39 7e 3e
       0.0009681407 0.031846717 -0.27873293 0.24826698
0001d0 82 9a 12 3b 7a e6 cc be 09 9b 1e bf a1 87 ca bd
       0.0022369926 -0.4001959 -0.61955315 -0.098891504
0001e0 11 2b b0 be 96 31 da be fe 04 0d bf 77 00 87 3e
       -0.34407857 -0.42615956 -0.5508574 0.26367542
0001f0 34 6f 22 3d 2a 81 74 be fd b8 88 bf 83 4f 26 bf
       0.039656833 -0.23877397 -1.0681454 -0.64965075
000200 61 6f 76 3d 37 1f 0f 3f 5f 51 ed 3e c3 57 4b be
       0.060164813 0.55907005 0.46351144 -0.19857697
000210 c3 06 00 bf ec 2f a3 be 0d 02 53 bf 4a 6a ec bd
       -0.5001032 -0.318725 -0.82425004 -0.115437105
000220 8a 81 18 be 77 84 b1 3e f9 1f a4 bf e3 0c 85 3d
       -0.14893165 0.34671375 -1.2822257 0.064965986
000230 87 fa 7e be 6f d8 87 3e 6c 38 14 3f 97 93 2a 3f
       -0.24900256 0.26532313 0.5789859 0.66631454
000240 d0 2c 98 c0 19 ef 15 3e 09 c8 83 bf b0 d2 cc bf
       -4.7554703 0.1464199 -1.0295421 -1.6001797
000250 64 ae 10 3e 21 ff ac 3e 6e 62 bd be 04 f8 12 c0
       0.14129025 0.33788398 -0.36989158 -2.2963877
000260 4e 93 05 3e 12 9d 31 3f 33 b2 25 bf 83 5d 97 be
       0.13044474 0.69380295 -0.64725035 -0.2956353
000270 c4 51 73 be 60 9c 81 bf a8 53 32 c0 6b 18 69 3f
       -0.2376166 -1.0125847 -2.786356 0.91052884
000280 b1 1c 2b 3c 21 ae 7c 3f ef fa 99 3e 81 21 48 c0
       0.010443852 0.987032 0.3007426 -3.127045
000290 e5 e2 10 bf 04 e3 2e bf d2 04 49 bf b0 53 b0 bd
       -0.56596214 -0.6831515 -0.7852298 -0.08609712
0002a0 00 1c 04 3f b5 04 2a 3f ba ec e5 3d b8 e4 b5 3f
       0.51605225 0.6641343 0.11226793 1.4210424
0002b0 ea 0c c7 c0 54 87 1c c0 8a d9 f4 3e 4f 68 b6 be
       -6.2203264 -2.4457598 0.4782222 -0.35626456
0002c0 51 71 5f c0 9a de e9 3c 39 37 bf be bd c2 41 bf
       -3.4912913 0.028548528 -0.3734682 -0.7568777
0002d0 d4 21 e9 be bb 7b 3f bf e5 24 4b 3f 49 4c dd 3c
       -0.4553362 -0.7479817 0.7935317 0.027013915
0002e0 e9 93 77 3c 97 03 be 3e 03 3b 9d 3e 83 ed 9f bb
       0.015110948 0.37112114 0.30709085 -0.0048806085
0002f0 82 4e c1 bd b9 c8 55 3f dd fb 78 3e f7 30 b0 be
       -0.09438802 0.83509403 0.24314828 -0.34412357
000300 e7 d1 98 be ae 9c 92 be bb 29 63 bc e4 96 80 be
       -0.29847643 -0.28635162 -0.01386493 -0.2511512
000310 dc bc 1e 3f 48 c9 e4 be fc f5 93 3e 96 e5 44 be
       0.62006927 -0.44684815 0.2889861 -0.19228205
000320 fe fd b9 bc 53 56 2e be 22 cd 68 be bf 1d 7b 3e
       -0.02270412 -0.17025118 -0.22734502 0.24523066
000330 d3 40 f1 be 00 c4 9f 3e 94 4c 41 3e bb a7 43 3e
       -0.4711977 0.31204224 0.18876868 0.19106953
000340 9f 2c e0 bd f2 0e d2 bd 6a 1d 81 bd d2 14 e6 3d
       -0.10946011 -0.10256757 -0.063044384 0.1123444
000350 cb 62 35 bf 45 69 09 3f 21 1c 4f be 42 88 32 bf
       -0.7085387 0.53676254 -0.20225574 -0.6973916
000360 5a 73 e8 be e1 ce 3a 3e bc 9c 25 3e f5 3b 9e 3e
       -0.45400506 0.1824298 0.1617307 0.3090512
000370 56 3a e0 3e a5 4a 0d 3f 33 57 b2 3e b8 4d f5 3d
       0.43794507 0.55192024 0.34832153 0.11977714
000380 56 4b f0 3d 60 d3 b3 3d 31 be 70 bf 03 01 e9 bd
       0.11733119 0.08780551 -0.9404021 -0.11377146
000390 2d 95 79 bf 9e c6 ca 3d c8 c3 3d bf 98 70 1e 3f
       -0.9749325 0.099011645 -0.74126863 0.61890554
0003a0 fe 7c 34 3e ab 00 74 3e ea e5 1d 3f 5a 02 1c bd
       0.17625806 0.2382838 0.61678946 -0.03808818
0003b0 78 34 2b bf 98 f3 9c be 77 ca 09 be b2 29 2b bf
       -0.66876936 -0.30654597 -0.1345614 -0.66860497
0003c0 32 6f b7 bd ce 5a 26 3f 0b b3 0a be ef 3d 96 3e
       -0.08956756 0.64982307 -0.13544862 0.29344127
0003d0 4d 21 ad 3d 1c 0b a7 3d 8e dd 32 be 15 15 7c be
       0.08453617 0.08156416 -0.17467329 -0.24617417
0003e0 85 13 aa be f6 58 c5 be 1e 7b 88 be 18 bb ae be
       -0.33218017 -0.38544434 -0.2665643 -0.34127116
0003f0 f2 33 83 be bd 11 9f 3d a4 c7 ba be 0c 34 55 3f
       -0.2562557 0.07767055 -0.3648044 0.8328254

net.2.bias f4 [64]
000000 21 19 47 be 0b 40 e7 3e 30 ab 4d 3b 54 1e 7c be
       -0.1944318 0.45166048 0.0031382553 -0.24620944
000010 1e 4d bc 3d b7 ad e5 be 28 ba 3f bf 01 45 c6 be
       0.091943964 -0.44859096 -0.74893427 -0.3872452
000020 7e d9 53 3e 8f 75 8d be 06 0e 7c 3e d9 6e e5 be
       0.20688435 -0.27628753 0.24614725 -0.44811133
000030 fa 88 3f 3e 40 29 0b bd 2d 5f 90 bd c4 5d 77 bd
       0.18704596 -0.033974886 -0.07049403 -0.060392156
000040 ba 01 a5 be 80 2c 01 3f d5 3e 7d bf 8b 31 3a 3e
       -0.3222788 0.50458527 -0.98924 0.18182962
000050 f6 36 b3 3f cf 17 9e bc cf 03 f8 3e 3e 24 ad 3d
       1.4001148 -0.019298462 0.48440406 0.08454178
000060 db 70 5d bf 45 dd 1e 3e 78 09 d4 bc f9 97 89 3e
       -0.8650033 0.15514095 -0.025883421 0.26873758
000070 cc c6 ae 3e 35 d6 2c be 8c 1a 47 3a 99 08 d9 3e
       0.34136045 -0.16878588 0.00075952034 0.42389372
000080 01 69 cf bf 8b 3d f3 be 68 81 88 3d 97 00 f2 3e
       -1.620392 -0.4750789 0.06665307 0.47266075
000090 27 da 1e be 40 66 87 bf d4 b7 51 bf e7 d7 ba be
       -0.15512906 -1.0578079 -0.81921124 -0.36492845
0000a0 c6 ba 88 3b fc 2a 49 3f 7b 4a 1b bf 67 d3 c3 bc
       0.0041726558 0.78581214 -0.60660523 -0.023904515
0000b0 9e f3 cf 3e 9c 17 38 3e 6c 7f 41 bd b4 cd e1 bd
       0.40615553 0.17977756 -0.04724066 -0.11025563
0000c0 3c af 31 be 7b dc 3c 3f 28 66 f6 3d 1c 4d cf 3e
       -0.17352003 0.73773926 0.120312035 0.40488517
0000d0 20 88 e3 3d e5 9f f5 be 07 d2 57 bf ab 34 0b bc
       0.11109948 -0.47973552 -0.8430485 -0.008496444
0000e0 dd c8 8b 3e ef e0 b7 3e 06 fe bf bd fe fe a6 3d
       0.27301684 0.35913798 -0.09374623 0.08154105
0000f0 a3 d6 6d 3d 89 d6 99 bf 9c 7b 3e be f1 6e 3e be
       0.05806602 -1.2018596 -0.1860184 -0.18597008

net.4.weight f4 [1, 64]
000000 1a ed ee 40 91 2c 0f 3e 29 4e e4 40 65 f3 22 be
       7.466443 0.13981844 7.134541 -0.1591316
000010 6c 6d e3 be ec 5c 8c bf ca 7c 9c 3f 35 52 ff 40
       -0.4441942 -1.0965858 1.2225583 7.978785
000020 27 2d 33 be c9 9a 81 bf ac 47 fe 3e 15 51 36 3f
       -0.17497693 -1.0125362 0.49664056 0.7121747
000030 15 cf 5a 40 15 12 18 bf 2c 5e 16 3f ff 09 db be
       3.4188893 -0.5940259 0.58737445 -0.42781064
000040 5a d9 5e 3f cd 9f 5a be ca e2 03 40 fb 61 8c be
       0.870504 -0.21350022 2.060717 -0.27418503
000050 ba cc 57 40 75 1e 3c bf 6a 7a 0f 3e 75 5c f6 3e
       3.3718705 -0.73483974 0.14011541 0.48117414
000060 04 49 55 bf 1c 8f dd 3e 8f 19 7d bb 49 2b 73 3e
       -0.8331454 0.43273246 -0.003861997 0.2374698
000070 48 e6 40 3f dd 3f 01 bf a7 f0 08 bf 03 0e 03 bf
       0.7535138 -0.5048807 -0.53492206 -0.51193255
000080 77 bf 22 40 19 2b de 3e f6 0e 56 3e b2 c1 fc 3d
       2.542936 0.43392256 0.20904145 0.12341632
000090 64 c1 cb be 35 93 01 40 b4 90 4c 40 2f de 38 bf
       -0.39795983 2.0246098 3.196332 -0.72214025
0000a0 33 48 39 bf 77 6c 4b 3e de d5 b7 40 47 ef e9 3e
       -0.7237579 0.19865595 5.744857 0.45690367
0000b0 30 86 22 bf 0c 8a a9 bf c1 17 81 3d 8a 4f a7 40
       -0.63486004 -1.3245254 0.06303359 5.2284594
0000c0 19 54 d9 3e d2 3d c1 3e 2c 09 c0 3e f8 51 12 3f
       0.42446974 0.37742478 0.37506998 0.57156324
0000d0 96 db 3b be ea 7a 97 bf d6 74 12 41 e6 94 d6 3c
       -0.18345484 -1.1834385 9.153524 0.026194047
0000e0 be 7b e0 3e f8 bb e9 be 9f 43 9a bf 86 b6 3c 41
       0.43844408 -0.4565122 -1.2051886 11.794561
0000f0 96 60 bf 40 2f 9b dd 40 ca 40 a5 bf 15 70 fc 40
       5.9805403 6.9251933 -1.2910397 7.888682
